Neural Network Tools for STM32 family v1.7.0 (stm.ai v8.1.0-19520)
Created date          : 2023-12-04 19:59:09
Parameters            : validate --name network -m /Users/mac/Dev/Project/ThermalCamera/Model/h5/quantized_model.tflite --type tflite --compression lossless --verbosity 1 --workspace /var/folders/g2/t0zgyy0d1tl_58849t9hfg5c0000gn/T/mxAI_workspace1053185420082082740808309412575722 --output /Users/mac/.stm32cubemx/network_output --allocate-inputs -O ram --allocate-outputs --valinput /Users/mac/Dev/Project/ThermalCamera/Model/h5/stm_test_data.npz

Exec/report summary (validate)
---------------------------------------------------------------------------------------------------------------------------
model file         :   /Users/mac/Dev/Project/ThermalCamera/Model/h5/quantized_model.tflite                                
type               :   tflite                                                                                              
c_name             :   network                                                                                             
compression        :   lossless                                                                                            
options            :   allocate-inputs, allocate-outputs                                                                   
optimization       :   ram                                                                                                 
workspace dir      :   /var/folders/g2/t0zgyy0d1tl_58849t9hfg5c0000gn/T/mxAI_workspace1053185420082082740808309412575722   
output dir         :   /Users/mac/.stm32cubemx/network_output                                                              
vinput files       :   /Users/mac/Dev/Project/ThermalCamera/Model/h5/stm_test_data.npz                                     
model_fmt          :   ss/sa per channel                                                                                   
model_name         :   quantized_model                                                                                     
model_hash         :   9c180646338e8e0b6a9209f9b8b44b61                                                                    
params #           :   1,829 items (2.04 KiB)                                                                              
---------------------------------------------------------------------------------------------------------------------------
input 1/1          :   'serving_default_input_10' (domain:activations/**default**)                                         
                   :   768 items, 3.00 KiB, ai_float, float, (1,24,32,1)                                                   
output 1/1         :   'conversion_10' (domain:activations/**default**)                                                    
                   :   5 items, 20 B, ai_float, float, (1,5)                                                               
macc               :   84,042                                                                                              
weights (ro)       :   2,084 B (2.04 KiB) (1 segment) / -5,232(-71.5%) vs float model                                      
activations (rw)   :   73,728 B (72.00 KiB) (1 segment) *                                                                  
ram (total)        :   73,728 B (72.00 KiB) = 73,728 + 0 + 0                                                               
---------------------------------------------------------------------------------------------------------------------------
(*) 'input'/'output' buffers can be used from the activations buffer

Model name - quantized_model ['serving_default_input_10'] ['conversion_10']
------ ------------------------------------------------------------ --------------------------- ------------- -------- -------------------------------------------- --- --------------- ------------------ ---------------------- 
m_id   layer (type,original)                                        oshape                      param/size        macc                                 connected to   | c_size          c_macc             c_type                 
------ ------------------------------------------------------------ --------------------------- ------------- -------- -------------------------------------------- --- --------------- ------------------ ---------------------- 
0      serving_default_input_10 (Input, )                           [b:1,h:24,h:24,w:32,c:1]                                                                          |                 +1,536(+100.0%)    converter_oi8[0]       
       conversion_0 (Conversion, QUANTIZE)                          [b:1,h:24,h:24,w:32,c:1]                     1,536                     serving_default_input_10   |                 -1,536(-100.0%)    
------ ------------------------------------------------------------ --------------------------- ------------- -------- -------------------------------------------- --- --------------- ------------------ ---------------------- 
1      pool_1 (Pool, MAX_POOL_2D)                                   [b:1,h:24,h:24,w:32,c:1]                     6,912                                 conversion_0   |                                    pool_oi8[2]            
------ ------------------------------------------------------------ --------------------------- ------------- -------- -------------------------------------------- --- --------------- ------------------ ---------------------- 
2      conv2d_2 (Conv2D, CONV_2D)                                   [b:1,h:24,h:24,w:32,c:32]   64/160          24,608                                       pool_1   |                                    conv2d_oi8[3]          
       nl_2_nl (Nonlinearity, CONV_2D)                              [b:1,h:24,h:24,w:32,c:32]                   24,576                                     conv2d_2   |                 -24,576(-100.0%)   
------ ------------------------------------------------------------ --------------------------- ------------- -------- -------------------------------------------- --- --------------- ------------------ ---------------------- 
3      conv2d_3 (Conv2D, CONV_2D)                                   [b:1,h:24,h:24,w:32,c:16]   32/80           12,304                                 conversion_0   |                                    conv2d_oi8[1]          
       nl_3_nl (Nonlinearity, CONV_2D)                              [b:1,h:24,h:24,w:32,c:16]                   12,288                                     conv2d_3   |                 -12,288(-100.0%)   
------ ------------------------------------------------------------ --------------------------- ------------- -------- -------------------------------------------- --- --------------- ------------------ ---------------------- 
4      concat_4 (Concat, CONCATENATION)                             [b:1,h:24,h:24,w:32,c:48]                                                               nl_3_nl   |                                    concat_oi8[4]          
                                                                                                                                                            nl_2_nl   | 
------ ------------------------------------------------------------ --------------------------- ------------- -------- -------------------------------------------- --- --------------- ------------------ ---------------------- 
5      pool_5 (Pool, MEAN)                                          [b:1,h:1,h:1,w:1,c:48]                      36,864                                     concat_4   |                                    pool_oi8[5]            
       reshape_5_reshape (Reshape, MEAN)                            [b:1,c:48]                                                                               pool_5   |                                    
------ ------------------------------------------------------------ --------------------------- ------------- -------- -------------------------------------------- --- --------------- ------------------ ---------------------- 
6      reshape_6 (Reshape, RESHAPE)                                 [b:1,c:48]                                                                    reshape_5_reshape   |                                    
------ ------------------------------------------------------------ --------------------------- ------------- -------- -------------------------------------------- --- --------------- ------------------ ---------------------- 
7      model_dense_MatMul (Placeholder, )                           [h:32,h:32,c:48]            1,536/1,536                                                           | +128(+8.3%)     +1,568(+100.0%)    dense_oi8[6]           
       model_dense_BiasAdd_ReadVariableOp (Placeholder, )           [c:32]                      32/128                                                                | -128(-100.0%)                      
       gemm_7 (Gemm, FULLY_CONNECTED)                               [b:1,c:32]                                   1,568                                    reshape_6   |                 -1,568(-100.0%)    
                                                                                                                                                 model_dense_MatMul   | 
                                                                                                                                 model_dense_BiasAdd_ReadVariableOp   | 
       nl_7_nl (Nonlinearity, FULLY_CONNECTED)                      [b:1,c:32]                                      32                                       gemm_7   |                 -32(-100.0%)       
------ ------------------------------------------------------------ --------------------------- ------------- -------- -------------------------------------------- --- --------------- ------------------ ---------------------- 
8      model_number_output_MatMul (Placeholder, )                   [h:5,h:5,c:32]              160/160                                                               | +20(+12.5%)     +165(+100.0%)      dense_oi8[7]           
       model_number_output_BiasAdd_ReadVariableOp (Placeholder, )   [c:5]                       5/20                                                                  | -20(-100.0%)                       
       gemm_8 (Gemm, FULLY_CONNECTED)                               [b:1,c:5]                                      165                                      nl_7_nl   |                 -165(-100.0%)      
                                                                                                                                         model_number_output_MatMul   | 
                                                                                                                         model_number_output_BiasAdd_ReadVariableOp   | 
------ ------------------------------------------------------------ --------------------------- ------------- -------- -------------------------------------------- --- --------------- ------------------ ---------------------- 
9      nl_9 (Nonlinearity, SOFTMAX)                                 [b:1,c:5]                                       75                                       gemm_8   |                                    nl_oi8[8]              
------ ------------------------------------------------------------ --------------------------- ------------- -------- -------------------------------------------- --- --------------- ------------------ ---------------------- 
10     conversion_10 (Conversion, DEQUANTIZE)                       [b:1,c:5]                                       10                                         nl_9   |                                    converter_of32[o][9]   
------ ------------------------------------------------------------ --------------------------- ------------- -------- -------------------------------------------- --- --------------- ------------------ ---------------------- 
model/c-model: macc=120,938/84,042 -36,896(-30.5%) weights=2,084/2,084  activations=--/73,728 io=--/0



Generated C-graph summary
------------------------------------------------------------------------------------------------------------------------
model name            : quantized_model
c-name                : network
c-node #              : 10
c-array #             : 24
activations size      : 73728 (1 segment)
weights size          : 2084 (1 segment)
macc                  : 84042
inputs                : ['serving_default_input_10_output']
outputs               : ['conversion_10_output']

C-Arrays (24)
------ --------------------------------- ------------- ------------------------- --------------- ------------- --------- 
c_id   name (*_array)                    item/size     domain/mem-pool           c-type          fmt           comment   
------ --------------------------------- ------------- ------------------------- --------------- ------------- --------- 
0      serving_default_input_10_output   768/3072      activations/**default**   float           float32       /input    
1      conversion_0_output               768/768       activations/**default**   int8_t          sa8                     
2      conv2d_3_output                   12288/12288   activations/**default**   int8_t          sa8                     
3      pool_1_output                     768/768       activations/**default**   int8_t          sa8                     
4      conv2d_2_output                   24576/24576   activations/**default**   int8_t          sa8                     
5      concat_4_output                   36864/36864   activations/**default**   int8_t          sa8                     
6      pool_5_output                     48/48         activations/**default**   int8_t          sa8                     
7      gemm_7_output                     32/32         activations/**default**   int8_t          sa8                     
8      gemm_8_output                     5/5           activations/**default**   int8_t          sa8                     
9      nl_9_output                       5/5           activations/**default**   int8_t          sa8                     
10     conversion_10_output              5/20          activations/**default**   float           float32       /output   
11     conv2d_3_weights                  16/16         weights/weights           const int8_t    ss8/ch(16)              
12     conv2d_3_bias                     16/64         weights/weights           const int32_t   ss32/ch(16)             
13     conv2d_2_weights                  32/32         weights/weights           const int8_t    ss8/ch(32)              
14     conv2d_2_bias                     32/128        weights/weights           const int32_t   ss32/ch(32)             
15     gemm_7_weights                    1536/1536     weights/weights           const int8_t    ss8                     
16     gemm_7_bias                       32/128        weights/weights           const int32_t   ss32                    
17     gemm_8_weights                    160/160       weights/weights           const int8_t    ss8                     
18     gemm_8_bias                       5/20          weights/weights           const int32_t   ss32                    
19     conv2d_3_scratch0                 164/164       activations/**default**   int8_t          s8                      
20     conv2d_2_scratch0                 324/324       activations/**default**   int8_t          s8                      
21     gemm_7_scratch0                   48/96         activations/**default**   int16_t         s16                     
22     gemm_8_scratch0                   32/64         activations/**default**   int16_t         s16                     
23     nl_9_scratch0                     5/20          activations/**default**   int32_t         s32                     
------ --------------------------------- ------------- ------------------------- --------------- ------------- --------- 

C-Layers (10)
------ ---------------- ---- ------------ ------- ------ ------------------------------------ ------------------ 
c_id   name (*_layer)   id   layer_type   macc    rom    tensors                              shape (array id)   
------ ---------------- ---- ------------ ------- ------ ------------------------------------ ------------------ 
0      conversion_0     0    converter    1536    0      I: serving_default_input_10_output   (1,24,32,1) (0)    
                                                         O: conversion_0_output               (1,24,32,1) (1)    
------ ---------------- ---- ------------ ------- ------ ------------------------------------ ------------------ 
1      conv2d_3         3    conv2d       12304   80     I: conversion_0_output               (1,24,32,1) (1)    
                                                         S: conv2d_3_scratch0                                    
                                                         W: conv2d_3_weights                  (1,1,1,16) (11)    
                                                         W: conv2d_3_bias                     (16,) (12)         
                                                         O: conv2d_3_output                   (1,24,32,16) (2)   
------ ---------------- ---- ------------ ------- ------ ------------------------------------ ------------------ 
2      pool_1           1    pool         6912    0      I: conversion_0_output               (1,24,32,1) (1)    
                                                         O: pool_1_output                     (1,24,32,1) (3)    
------ ---------------- ---- ------------ ------- ------ ------------------------------------ ------------------ 
3      conv2d_2         2    conv2d       24608   160    I: pool_1_output                     (1,24,32,1) (3)    
                                                         S: conv2d_2_scratch0                                    
                                                         W: conv2d_2_weights                  (1,1,1,32) (13)    
                                                         W: conv2d_2_bias                     (32,) (14)         
                                                         O: conv2d_2_output                   (1,24,32,32) (4)   
------ ---------------- ---- ------------ ------- ------ ------------------------------------ ------------------ 
4      concat_4         4    concat       0       0      I: conv2d_3_output                   (1,24,32,16) (2)   
                                                         I: conv2d_2_output                   (1,24,32,32) (4)   
                                                         O: concat_4_output                   (1,24,32,48) (5)   
------ ---------------- ---- ------------ ------- ------ ------------------------------------ ------------------ 
5      pool_5           5    pool         36864   0      I: concat_4_output                   (1,24,32,48) (5)   
                                                         O: pool_5_output                     (1,1,1,48) (6)     
------ ---------------- ---- ------------ ------- ------ ------------------------------------ ------------------ 
6      gemm_7           7    dense        1568    1664   I: pool_5_output                     (1,1,1,48) (6)     
                                                         S: gemm_7_scratch0                                      
                                                         W: gemm_7_weights                    (48,32) (15)       
                                                         W: gemm_7_bias                       (32,) (16)         
                                                         O: gemm_7_output                     (1,32) (7)         
------ ---------------- ---- ------------ ------- ------ ------------------------------------ ------------------ 
7      gemm_8           8    dense        165     180    I: gemm_7_output                     (1,32) (7)         
                                                         S: gemm_8_scratch0                                      
                                                         W: gemm_8_weights                    (32,5) (17)        
                                                         W: gemm_8_bias                       (5,) (18)          
                                                         O: gemm_8_output                     (1,5) (8)          
------ ---------------- ---- ------------ ------- ------ ------------------------------------ ------------------ 
8      nl_9             9    nl           75      0      I: gemm_8_output                     (1,5) (8)          
                                                         S: nl_9_scratch0                                        
                                                         O: nl_9_output                       (1,5) (9)          
------ ---------------- ---- ------------ ------- ------ ------------------------------------ ------------------ 
9      conversion_10    10   converter    10      0      I: nl_9_output                       (1,5) (9)          
                                                         O: conversion_10_output              (1,5) (10)         
------ ---------------- ---- ------------ ------- ------ ------------------------------------ ------------------ 
 
Setting validation data...
 loading file: /Users/mac/Dev/Project/ThermalCamera/Model/h5/stm_test_data.npz
 I[1]: (10, 24, 32, 1)/float32, min/max=[0.000, 1.000], mean/std=[0.236, 0.194], serving_default_input_10
 O[1]: (10, 1, 1, 5)/float32, min/max=[0.000, 1.000], mean/std=[0.200, 0.400], conversion_10
 
Running the STM AI c-model (AI RUNNER)...(name=network, mode=x86)

 X86 shared lib (/var/folders/g2/t0zgyy0d1tl_58849t9hfg5c0000gn/T/mxAI_workspace1053185420082082740808309412575722/inspector_network/workspace/lib/libai_network.dylib) ['network']
  
  Summary "network" - ['network']
  -------------------------------------------------------------------------------------------
  inputs/ouputs      :   1/1                                                                 
  input_1            :   input_1, (1,24,32,1), float32, 3,072 bytes, in activations buffer   
  output_1           :   output_1, (1,1,1,5), float32, 20 bytes, in activations buffer       
  n_nodes            :   10                                                                  
  compile_datetime   :   Dec  4 2023 19:59:08                                                
  activations        :   73728                                                               
  weights            :   2084                                                                
  macc               :   84042                                                               
  -------------------------------------------------------------------------------------------
  runtime            :   STM.AI(/) 8.1.0 (Tools 8.1.0) -                                     
  capabilities       :   IO_ONLY, PER_LAYER, PER_LAYER_WITH_DATA                             
  device             :   arm64 arm (Darwin)                                                  
 
 NOTE: duration and exec time per layer is just an indication. They are dependent of the HOST-machine work-load.

  
  STM.AI Profiling results v1.2 - network
  ------------------------------------------------------------
  nb sample(s)    :   10                                      
  duration        :   0.109ms by sample (0.089/0.223/0.040)   
  macc            :   84042                                   
  ------------------------------------------------------------
  HOST duration   :   0.007s (total)                          
  ------------------------------------------------------------
   
   Inference time per node
   ----------------------------------------------------------------------
   c_id    m_id   type             dur (ms)     %            name        
   ----------------------------------------------------------------------
   0       0      NL (0x107)            0.001      0.9%      ai_node_0   
   1       3      Conv2D (0x103)        0.022     20.6%      ai_node_1   
   2       1      Pool (0x10b)          0.007      6.1%      ai_node_2   
   3       2      Conv2D (0x103)        0.032     29.5%      ai_node_3   
   4       4      Concat (0x110)        0.007      6.0%      ai_node_4   
   5       5      Pool (0x10b)          0.036     32.9%      ai_node_5   
   6       7      Dense (0x104)         0.003      3.0%      ai_node_6   
   7       8      Dense (0x104)         0.000      0.3%      ai_node_7   
   8       9      NL (0x107)            0.000      0.4%      ai_node_8   
   9       10     NL (0x107)            0.000      0.0%      ai_node_9   
   ----------------------------------------------------------------------
   total                                0.109                            
   ----------------------------------------------------------------------
   
   Statistic per tensor
   ----------------------------------------------------------------------------
   tensor   shape/type                min     max     mean      std name       
   ----------------------------------------------------------------------------
   I.0      (1,24,32,1)/float32     0.000   1.000    0.236    0.194 input_1    
   O.0      (1,1,1,5)/float32       0.000   0.680    0.200    0.248 output_1   
   ----------------------------------------------------------------------------
 
Saving validation data...
 output directory: /Users/mac/.stm32cubemx/network_output
 creating /Users/mac/.stm32cubemx/network_output/network_val_io.npz
 m_outputs_1: (10, 1, 1, 5)/float32, min/max=[0.000, 0.680], mean/std=[0.200, 0.248], conversion_10
 c_outputs_1: (10, 1, 1, 5)/float32, min/max=[0.000, 0.680], mean/std=[0.200, 0.248], conversion_10

 
Computing the metrics...

 Accuracy report #1 for the generated x86 C-model
 ----------------------------------------------------------------------------------------------------
 notes: - computed against the provided ground truth values
        - 10 samples (5 items per sample)

  acc=40.00%, rmse=0.369297892, mae=0.234765619, l2r=1.159841537, nse=16.47%, cos=57.94%

  5 classes (10 samples)
  ---------------------------------
  C0        0    .    .    .    .  
  C1        .    0    .    .    .  
  C2        .    .    0    .    .  
  C3        .    .    .    4    .  
  C4        .    .    .    6    0  

 Accuracy report #1 for the reference model
 ----------------------------------------------------------------------------------------------------
 notes: - computed against the provided ground truth values
        - 10 samples (5 items per sample)

  acc=40.00%, rmse=0.369378418, mae=0.234843746, l2r=1.159754395, nse=16.43%, cos=57.92%

  5 classes (10 samples)
  ---------------------------------
  C0        0    .    .    .    .  
  C1        .    0    .    .    .  
  C2        .    .    0    .    .  
  C3        .    .    .    4    .  
  C4        .    .    .    6    0  

 Cross accuracy report #1 (reference vs C-model)
 ----------------------------------------------------------------------------------------------------
 notes: - the output of the reference model is used as ground truth/reference value
        - 10 samples (5 items per sample)

  acc=100.00%, rmse=0.000552427, mae=0.000078125, l2r=0.001734990, nse=100.00%, cos=100.00%

  5 classes (10 samples)
  ---------------------------------
  C0        0    .    .    .    .  
  C1        .    0    .    .    .  
  C2        .    .    0    .    .  
  C3        .    .    .   10    .  
  C4        .    .    .    .    0  


Number of operations per c-layer
------- ------ --------------------------- -------- ------------- -------- ---------- 
c_id    m_id   name (type)                      #op          type   #param   sparsity 
------- ------ --------------------------- -------- ------------- -------- ---------- 
0       0      conversion_0 (converter)       1,536   conv_f32_s8          
1       3      conv2d_3 (conv2d)             12,304    smul_s8_s8       32     0.5312 
2       1      pool_1 (pool)                  6,912      op_s8_s8          
3       2      conv2d_2 (conv2d)             24,608    smul_s8_s8       64     0.7188 
4       4      concat_4 (concat)                  0      op_s8_s8          
5       5      pool_5 (pool)                 36,864      op_s8_s8          
6       7      gemm_7 (dense)                 1,568    smul_s8_s8    1,568     0.7876 
7       8      gemm_8 (dense)                   165    smul_s8_s8      165     0.7758 
8       9      nl_9 (nl)                         75      op_s8_s8          
9       10     conversion_10 (converter)         10   conv_s8_f32          
------- ------ --------------------------- -------- ------------- -------- ---------- 
total                                        84,042                  1,829     0.7797 

Number of operation types
---------------- -------- ----------- 
operation type          #           % 
---------------- -------- ----------- 
conv_f32_s8         1,536        1.8% 
smul_s8_s8         38,645       46.0% 
op_s8_s8           43,851       52.2% 
conv_s8_f32            10        0.0% 

Complexity report (model)
------ ---------------------------- ------------------------- ------------------------- ------ -------- ------------------ 
m_id   name                         c_macc                    c_rom                     c_id   c_dur    rmse (C-MODEL)     
------ ---------------------------- ------------------------- ------------------------- ------ -------- ------------------ 
0      serving_default_input_10     |                  1.8%   |                  0.0%   [0]      1.1%                      
1      pool_1                       |||                8.2%   |                  0.0%   [2]      5.8%                      
2      conv2d_2                     |||||||||||       29.3%   ||                 7.7%   [3]     34.3%                      
3      conv2d_3                     ||||||            14.6%   |                  3.8%   [1]     17.8%                      
4      concat_4                     |                  0.0%   |                  0.0%   [4]      4.3%                      
5      pool_5                       ||||||||||||||||  43.9%   |                  0.0%   [5]     34.9%                      
7      model_dense_MatMul           |                  1.9%   ||||||||||||||||  79.8%   [6]      1.2%                      
8      model_number_output_MatMul   |                  0.2%   ||                 8.6%   [7]      0.3%                      
9      nl_9                         |                  0.1%   |                  0.0%   [8]      0.4%                      
10     conversion_10                |                  0.0%   |                  0.0%   [9]      0.0%   3.69297892e-01 *   
------ ---------------------------- ------------------------- ------------------------- ------ -------- ------------------ 
macc=84,042 weights=2,084 act=73,728 ram_io=0

Evaluation report (summary)
--------------------------------------------------------------------------------------------------------------------------------------------------------------
Output              acc       rmse        mae         l2r         mean        std         nse         cos         tensor                                      
--------------------------------------------------------------------------------------------------------------------------------------------------------------
x86 c-model #1      40.00%    0.3692979   0.2347656   1.1598415   0.0002344   0.3730471   0.1646676   0.5793765   conversion_10, ai_float, (1,5), m_id=[10]   
original model #1   40.00%    0.3693784   0.2348437   1.1597544   0.0001562   0.3731285   0.1643031   0.5792065   conversion_10, ai_float, (1,5), m_id=[10]   
X-cross #1          100.00%   0.0005524   0.0000781   0.0017350   0.0000781   0.0005524   0.9999951   0.9999986   conversion_10, ai_float, (1,5), m_id=[10]   
--------------------------------------------------------------------------------------------------------------------------------------------------------------

 acc  : Classification accuracy (all classes)
 rmse : Root Mean Squared Error
 mae  : Mean Absolute Error
 l2r  : L2 relative error
 nse  : Nash-Sutcliffe efficiency criteria
 cos  : COsine Similarity
