Neural Network Tools for STM32 family v1.7.0 (stm.ai v8.1.0-19520)
Created date          : 2024-03-18 17:11:42
Parameters            : generate --name model -m C:/Project/ThermalCamera/h5/model_depthwise.tflite --type tflite --compression none --verbosity 1 --workspace C:\Users\TUKORE~1\AppData\Local\Temp\mxAI_workspace343728226057200654640524641977049 --output C:\Users\TUKorea707\.stm32cubemx\network_output --allocate-inputs --series stm32f7 -O time --allocate-outputs

Exec/report summary (generate)
--------------------------------------------------------------------------------------------------------------
model file         :   C:\Project\ThermalCamera\h5\model_depthwise.tflite                                     
type               :   tflite                                                                                 
c_name             :   model                                                                                  
compression        :   none                                                                                   
options            :   allocate-inputs, allocate-outputs                                                      
optimization       :   time                                                                                   
target/series      :   stm32f7                                                                                
workspace dir      :   C:\Users\TUKORE~1\AppData\Local\Temp\mxAI_workspace343728226057200654640524641977049   
output dir         :   C:\Users\TUKorea707\.stm32cubemx\network_output                                        
model_fmt          :   float                                                                                  
model_name         :   model_depthwise                                                                        
model_hash         :   313799ba5e872c04b58fec7204875576                                                       
params #           :   144,957 items (566.24 KiB)                                                             
--------------------------------------------------------------------------------------------------------------
input 1/1          :   'serving_default_input_30' (domain:activations/**default**)                            
                   :   768 items, 3.00 KiB, ai_float, float, (1,24,32,1)                                      
output 1/1         :   'nl_119' (domain:activations/**default**)                                              
                   :   5 items, 20 B, ai_float, float, (1,5)                                                  
macc               :   3,993,912                                                                              
weights (ro)       :   579,820 B (566.23 KiB) (1 segment) / -8(-0.0%) vs float model                          
activations (rw)   :   49,152 B (48.00 KiB) (1 segment) *                                                     
ram (total)        :   49,152 B (48.00 KiB) = 49,152 + 0 + 0                                                  
--------------------------------------------------------------------------------------------------------------
(*) 'input'/'output' buffers can be used from the activations buffer

Model name - model_depthwise ['serving_default_input_30'] ['nl_119']
------ -------------------------------------------------------- -------------------------------------------------- ---------------- --------- ---------------------------------------- --- --------------- ------------------ ---------------------------------------- 
m_id   layer (type,original)                                    oshape                                             param/size            macc                             connected to   | c_size          c_macc             c_type                                   
------ -------------------------------------------------------- -------------------------------------------------- ---------------- --------- ---------------------------------------- --- --------------- ------------------ ---------------------------------------- 
0      serving_default_input_30 (Input, )                       [b:1,h:24,h:24,w:32,c:1]                                                                                                 | +592(+100.0%)   +27,652(+100.0%)   conv2d_of32[0]                           
       conv2d_0 (Conv2D, CONV_2D)                               [b:1,h:12,h:12,w:16,c:4]                           148/592             27,652                 serving_default_input_30   | -592(-100.0%)   -27,652(-100.0%)   
------ -------------------------------------------------------- -------------------------------------------------- ---------------- --------- ---------------------------------------- --- --------------- ------------------ ---------------------------------------- 
1      nl_1 (Nonlinearity, LOGISTIC)                            [b:1,h:12,h:12,w:16,c:4]                                                7,680                                 conv2d_0   |                                    nl_of32[1]                               
------ -------------------------------------------------------- -------------------------------------------------- ---------------- --------- ---------------------------------------- --- --------------- ------------------ ---------------------------------------- 
2      eltwise_2 (Eltwise, MUL)                                 [b:1,h:12,h:12,w:16,c:4]                                                  768                                 conv2d_0   |                                    eltwise/mul_of32[2]                      
                                                                                                                                                                                  nl_1   | 
------ -------------------------------------------------------- -------------------------------------------------- ---------------- --------- ---------------------------------------- --- --------------- ------------------ ---------------------------------------- 
3      conv2d_3 (Conv2D, CONV_2D)                               [b:1,h:12,h:12,w:16,c:16]                          592/2,368          110,608                                eltwise_2   |                                    conv2d_of32[3]                           
------ -------------------------------------------------------- -------------------------------------------------- ---------------- --------- ---------------------------------------- --- --------------- ------------------ ---------------------------------------- 
4      nl_4 (Nonlinearity, LOGISTIC)                            [b:1,h:12,h:12,w:16,c:16]                                              30,720                                 conv2d_3   |                                    nl_of32[4]                               
------ -------------------------------------------------------- -------------------------------------------------- ---------------- --------- ---------------------------------------- --- --------------- ------------------ ---------------------------------------- 
5      eltwise_5 (Eltwise, MUL)                                 [b:1,h:12,h:12,w:16,c:16]                                               3,072                                 conv2d_3   |                                    eltwise/mul_of32[5]                      
                                                                                                                                                                                  nl_4   | 
------ -------------------------------------------------------- -------------------------------------------------- ---------------- --------- ---------------------------------------- --- --------------- ------------------ ---------------------------------------- 
6      split_6 (Split, SPLIT)                                   [b:1,h:12,h:12,w:16,c:8][b:1,h:12,h:12,w:16,c:8]                                                             eltwise_5   |                                    split_of32of32[6]                        
------ -------------------------------------------------------- -------------------------------------------------- ---------------- --------- ---------------------------------------- --- --------------- ------------------ ---------------------------------------- 
7      conv2d_7 (Conv2D, DEPTHWISE_CONV_2D)                     [b:1,h:12,h:12,w:16,c:8]                           80/320              13,832                                  split_6   |                                    conv2d_of32[11]                          
------ -------------------------------------------------------- -------------------------------------------------- ---------------- --------- ---------------------------------------- --- --------------- ------------------ ---------------------------------------- 
8      conv2d_8 (Conv2D, CONV_2D)                               [b:1,h:12,h:12,w:16,c:16]                          144/576             24,592                                 conv2d_7   |                                    conv2d_of32[12]                          
------ -------------------------------------------------------- -------------------------------------------------- ---------------- --------- ---------------------------------------- --- --------------- ------------------ ---------------------------------------- 
9      nl_9 (Nonlinearity, LOGISTIC)                            [b:1,h:12,h:12,w:16,c:16]                                              30,720                                 conv2d_8   |                                    nl_of32[13]                              
------ -------------------------------------------------------- -------------------------------------------------- ---------------- --------- ---------------------------------------- --- --------------- ------------------ ---------------------------------------- 
10     eltwise_10 (Eltwise, MUL)                                [b:1,h:12,h:12,w:16,c:16]                                               3,072                                 conv2d_8   |                                    eltwise/mul_of32[14]                     
                                                                                                                                                                                  nl_9   | 
------ -------------------------------------------------------- -------------------------------------------------- ---------------- --------- ---------------------------------------- --- --------------- ------------------ ---------------------------------------- 
11     conv2d_11 (Conv2D, CONV_2D)                              [b:1,h:12,h:12,w:16,c:4]                           68/272              12,292                               eltwise_10   |                                    conv2d_of32[15]                          
------ -------------------------------------------------------- -------------------------------------------------- ---------------- --------- ---------------------------------------- --- --------------- ------------------ ---------------------------------------- 
12     nl_12 (Nonlinearity, LOGISTIC)                           [b:1,h:12,h:12,w:16,c:4]                                                7,680                                conv2d_11   |                                    nl_of32[16]                              
------ -------------------------------------------------------- -------------------------------------------------- ---------------- --------- ---------------------------------------- --- --------------- ------------------ ---------------------------------------- 
13     eltwise_13 (Eltwise, MUL)                                [b:1,h:12,h:12,w:16,c:4]                                                  768                                conv2d_11   |                                    eltwise/mul_of32[17]                     
                                                                                                                                                                                 nl_12   | 
------ -------------------------------------------------------- -------------------------------------------------- ---------------- --------- ---------------------------------------- --- --------------- ------------------ ---------------------------------------- 
14     conv2d_14 (Conv2D, CONV_2D)                              [b:1,h:12,h:12,w:16,c:4]                           148/592             27,652                               eltwise_13   |                                    conv2d_of32[18]                          
------ -------------------------------------------------------- -------------------------------------------------- ---------------- --------- ---------------------------------------- --- --------------- ------------------ ---------------------------------------- 
15     nl_15 (Nonlinearity, LOGISTIC)                           [b:1,h:12,h:12,w:16,c:4]                                                7,680                                conv2d_14   |                                    nl_of32[19]                              
------ -------------------------------------------------------- -------------------------------------------------- ---------------- --------- ---------------------------------------- --- --------------- ------------------ ---------------------------------------- 
16     eltwise_16 (Eltwise, MUL)                                [b:1,h:12,h:12,w:16,c:4]                                                  768                                conv2d_14   |                                    eltwise/mul_of32[20]                     
                                                                                                                                                                                 nl_15   | 
------ -------------------------------------------------------- -------------------------------------------------- ---------------- --------- ---------------------------------------- --- --------------- ------------------ ---------------------------------------- 
17     conv2d_17 (Conv2D, CONV_2D)                              [b:1,h:12,h:12,w:16,c:16]                          80/320              12,304                               eltwise_16   |                                    conv2d_of32[21]                          
------ -------------------------------------------------------- -------------------------------------------------- ---------------- --------- ---------------------------------------- --- --------------- ------------------ ---------------------------------------- 
18     nl_18 (Nonlinearity, LOGISTIC)                           [b:1,h:12,h:12,w:16,c:16]                                              30,720                                conv2d_17   |                                    nl_of32[22]                              
------ -------------------------------------------------------- -------------------------------------------------- ---------------- --------- ---------------------------------------- --- --------------- ------------------ ---------------------------------------- 
19     eltwise_19 (Eltwise, MUL)                                [b:1,h:12,h:12,w:16,c:16]                                               3,072                                conv2d_17   |                                    eltwise/mul_of32[23]                     
                                                                                                                                                                                 nl_18   | 
------ -------------------------------------------------------- -------------------------------------------------- ---------------- --------- ---------------------------------------- --- --------------- ------------------ ---------------------------------------- 
20     eltwise_20 (Eltwise, ADD)                                [b:1,h:12,h:12,w:16,c:16]                                               3,072                               eltwise_19   |                                    eltwise/sum_of32[24]                     
                                                                                                                                                                            eltwise_10   | 
------ -------------------------------------------------------- -------------------------------------------------- ---------------- --------- ---------------------------------------- --- --------------- ------------------ ---------------------------------------- 
21     conv2d_21 (Conv2D, DEPTHWISE_CONV_2D)                    [b:1,h:12,h:12,w:16,c:8]                           80/320              13,832                                  split_6   |                                    conv2d_of32[7]                           
------ -------------------------------------------------------- -------------------------------------------------- ---------------- --------- ---------------------------------------- --- --------------- ------------------ ---------------------------------------- 
22     conv2d_22 (Conv2D, CONV_2D)                              [b:1,h:12,h:12,w:16,c:16]                          144/576             24,592                                conv2d_21   |                                    conv2d_of32[8]                           
------ -------------------------------------------------------- -------------------------------------------------- ---------------- --------- ---------------------------------------- --- --------------- ------------------ ---------------------------------------- 
23     nl_23 (Nonlinearity, LOGISTIC)                           [b:1,h:12,h:12,w:16,c:16]                                              30,720                                conv2d_22   |                                    nl_of32[9]                               
------ -------------------------------------------------------- -------------------------------------------------- ---------------- --------- ---------------------------------------- --- --------------- ------------------ ---------------------------------------- 
24     eltwise_24 (Eltwise, MUL)                                [b:1,h:12,h:12,w:16,c:16]                                               3,072                                conv2d_22   |                                    eltwise/mul_of32[10]                     
                                                                                                                                                                                 nl_23   | 
------ -------------------------------------------------------- -------------------------------------------------- ---------------- --------- ---------------------------------------- --- --------------- ------------------ ---------------------------------------- 
25     concat_25 (Concat, CONCATENATION)                        [b:1,h:12,h:12,w:16,c:32]                                                                                   eltwise_20   |                                    concat_of32[25]                          
                                                                                                                                                                            eltwise_24   | 
------ -------------------------------------------------------- -------------------------------------------------- ---------------- --------- ---------------------------------------- --- --------------- ------------------ ---------------------------------------- 
26     conv2d_26 (Conv2D, CONV_2D)                              [b:1,h:12,h:12,w:16,c:16]                          4,624/18,496       884,752                                concat_25   |                                    conv2d_of32[26]                          
------ -------------------------------------------------------- -------------------------------------------------- ---------------- --------- ---------------------------------------- --- --------------- ------------------ ---------------------------------------- 
27     nl_27 (Nonlinearity, LOGISTIC)                           [b:1,h:12,h:12,w:16,c:16]                                              30,720                                conv2d_26   |                                    nl_of32[27]                              
------ -------------------------------------------------------- -------------------------------------------------- ---------------- --------- ---------------------------------------- --- --------------- ------------------ ---------------------------------------- 
28     eltwise_28 (Eltwise, MUL)                                [b:1,h:12,h:12,w:16,c:16]                                               3,072                                conv2d_26   |                                    eltwise/mul_of32[28]                     
                                                                                                                                                                                 nl_27   | 
------ -------------------------------------------------------- -------------------------------------------------- ---------------- --------- ---------------------------------------- --- --------------- ------------------ ---------------------------------------- 
29     pool_29 (Pool, REDUCE_MAX)                               [b:1,h:1,h:1,w:1,c:16]                                                  3,072                               eltwise_28   |                                    pool_of32[30]                            
------ -------------------------------------------------------- -------------------------------------------------- ---------------- --------- ---------------------------------------- --- --------------- ------------------ ---------------------------------------- 
30     pool_30 (Pool, MEAN)                                     [b:1,h:1,h:1,w:1,c:16]                                                  3,072                               eltwise_28   |                                    pool_of32[29]                            
------ -------------------------------------------------------- -------------------------------------------------- ---------------- --------- ---------------------------------------- --- --------------- ------------------ ---------------------------------------- 
31     concat_31 (Concat, CONCATENATION)                        [b:1,h:1,h:1,w:1,c:32]                                                                                         pool_30   |                                    concat_of32[31]                          
                                                                                                                                                                               pool_29   | 
------ -------------------------------------------------------- -------------------------------------------------- ---------------- --------- ---------------------------------------- --- --------------- ------------------ ---------------------------------------- 
32     conv2d_32 (Conv2D, CONV_2D)                              [b:1,h:1,h:1,w:1,c:1]                              1,569/6,276          1,569                                concat_31   |                                    conv2d_of32[32]                          
------ -------------------------------------------------------- -------------------------------------------------- ---------------- --------- ---------------------------------------- --- --------------- ------------------ ---------------------------------------- 
33     nl_33 (Nonlinearity, LOGISTIC)                           [b:1,h:1,h:1,w:1,c:1]                                                      10                                conv2d_32   |                                    nl_of32[33]                              
------ -------------------------------------------------------- -------------------------------------------------- ---------------- --------- ---------------------------------------- --- --------------- ------------------ ---------------------------------------- 
34     eltwise_34 (Eltwise, MUL)                                [b:1,h:12,h:12,w:16,c:16]                                               3,072                               eltwise_28   |                                    eltwise/mul_of32[34]                     
                                                                                                                                                                                 nl_33   | 
------ -------------------------------------------------------- -------------------------------------------------- ---------------- --------- ---------------------------------------- --- --------------- ------------------ ---------------------------------------- 
35     reduce_35 (Reduce, REDUCE_MAX)                           [b:1,h:12,h:12,w:16,c:1]                                                3,072                               eltwise_34   |                                    reduce_of32[37]                          
------ -------------------------------------------------------- -------------------------------------------------- ---------------- --------- ---------------------------------------- --- --------------- ------------------ ---------------------------------------- 
36     reduce_36 (Reduce, MEAN)                                 [b:1,h:12,h:12,w:16,c:1]                                                6,144                               eltwise_34   | +4(+100.0%)     -2,880(-46.9%)     reduce_of32/eltwise/mul_of32[35, 36]     
------ -------------------------------------------------------- -------------------------------------------------- ---------------- --------- ---------------------------------------- --- --------------- ------------------ ---------------------------------------- 
37     concat_37 (Concat, CONCATENATION)                        [b:1,h:12,h:12,w:16,c:2]                                                                                     reduce_36   |                                    concat_of32[38]                          
                                                                                                                                                                             reduce_35   | 
------ -------------------------------------------------------- -------------------------------------------------- ---------------- --------- ---------------------------------------- --- --------------- ------------------ ---------------------------------------- 
38     conv2d_38 (Conv2D, CONV_2D)                              [b:1,h:12,h:12,w:16,c:1]                           99/396              18,817                                concat_37   |                                    conv2d_of32[39]                          
------ -------------------------------------------------------- -------------------------------------------------- ---------------- --------- ---------------------------------------- --- --------------- ------------------ ---------------------------------------- 
39     nl_39 (Nonlinearity, LOGISTIC)                           [b:1,h:12,h:12,w:16,c:1]                                                1,920                                conv2d_38   |                                    nl_of32[40]                              
------ -------------------------------------------------------- -------------------------------------------------- ---------------- --------- ---------------------------------------- --- --------------- ------------------ ---------------------------------------- 
40     eltwise_40 (Eltwise, MUL)                                [b:1,h:12,h:12,w:16,c:16]                                                 192                                    nl_39   |                                    eltwise/mul_of32[41]                     
                                                                                                                                                                            eltwise_34   | 
------ -------------------------------------------------------- -------------------------------------------------- ---------------- --------- ---------------------------------------- --- --------------- ------------------ ---------------------------------------- 
41     conv2d_41 (Conv2D, CONV_2D)                              [b:1,h:6,h:6,w:8,c:32]                             4,640/18,560       221,216                               eltwise_40   |                                    conv2d_of32[42]                          
------ -------------------------------------------------------- -------------------------------------------------- ---------------- --------- ---------------------------------------- --- --------------- ------------------ ---------------------------------------- 
42     nl_42 (Nonlinearity, LOGISTIC)                           [b:1,h:6,h:6,w:8,c:32]                                                 15,360                                conv2d_41   |                                    nl_of32[43]                              
------ -------------------------------------------------------- -------------------------------------------------- ---------------- --------- ---------------------------------------- --- --------------- ------------------ ---------------------------------------- 
43     eltwise_43 (Eltwise, MUL)                                [b:1,h:6,h:6,w:8,c:32]                                                  1,536                                conv2d_41   |                                    eltwise/mul_of32[44]                     
                                                                                                                                                                                 nl_42   | 
------ -------------------------------------------------------- -------------------------------------------------- ---------------- --------- ---------------------------------------- --- --------------- ------------------ ---------------------------------------- 
44     split_44 (Split, SPLIT)                                  [b:1,h:6,h:6,w:8,c:16][b:1,h:6,h:6,w:8,c:16]                                                                eltwise_43   |                                    split_of32of32[45]                       
------ -------------------------------------------------------- -------------------------------------------------- ---------------- --------- ---------------------------------------- --- --------------- ------------------ ---------------------------------------- 
45     conv2d_45 (Conv2D, DEPTHWISE_CONV_2D)                    [b:1,h:6,h:6,w:8,c:16]                             160/640              6,928                                 split_44   |                                    conv2d_of32[50]                          
------ -------------------------------------------------------- -------------------------------------------------- ---------------- --------- ---------------------------------------- --- --------------- ------------------ ---------------------------------------- 
46     conv2d_46 (Conv2D, CONV_2D)                              [b:1,h:6,h:6,w:8,c:32]                             544/2,176           24,608                                conv2d_45   |                                    conv2d_of32[51]                          
------ -------------------------------------------------------- -------------------------------------------------- ---------------- --------- ---------------------------------------- --- --------------- ------------------ ---------------------------------------- 
47     nl_47 (Nonlinearity, LOGISTIC)                           [b:1,h:6,h:6,w:8,c:32]                                                 15,360                                conv2d_46   |                                    nl_of32[52]                              
------ -------------------------------------------------------- -------------------------------------------------- ---------------- --------- ---------------------------------------- --- --------------- ------------------ ---------------------------------------- 
48     eltwise_48 (Eltwise, MUL)                                [b:1,h:6,h:6,w:8,c:32]                                                  1,536                                conv2d_46   |                                    eltwise/mul_of32[53]                     
                                                                                                                                                                                 nl_47   | 
------ -------------------------------------------------------- -------------------------------------------------- ---------------- --------- ---------------------------------------- --- --------------- ------------------ ---------------------------------------- 
49     conv2d_49 (Conv2D, CONV_2D)                              [b:1,h:6,h:6,w:8,c:8]                              264/1,056           12,296                               eltwise_48   |                                    conv2d_of32[54]                          
------ -------------------------------------------------------- -------------------------------------------------- ---------------- --------- ---------------------------------------- --- --------------- ------------------ ---------------------------------------- 
50     nl_50 (Nonlinearity, LOGISTIC)                           [b:1,h:6,h:6,w:8,c:8]                                                   3,840                                conv2d_49   |                                    nl_of32[55]                              
------ -------------------------------------------------------- -------------------------------------------------- ---------------- --------- ---------------------------------------- --- --------------- ------------------ ---------------------------------------- 
51     eltwise_51 (Eltwise, MUL)                                [b:1,h:6,h:6,w:8,c:8]                                                     384                                conv2d_49   |                                    eltwise/mul_of32[56]                     
                                                                                                                                                                                 nl_50   | 
------ -------------------------------------------------------- -------------------------------------------------- ---------------- --------- ---------------------------------------- --- --------------- ------------------ ---------------------------------------- 
52     conv2d_52 (Conv2D, CONV_2D)                              [b:1,h:6,h:6,w:8,c:8]                              584/2,336           27,656                               eltwise_51   |                                    conv2d_of32[57]                          
------ -------------------------------------------------------- -------------------------------------------------- ---------------- --------- ---------------------------------------- --- --------------- ------------------ ---------------------------------------- 
53     nl_53 (Nonlinearity, LOGISTIC)                           [b:1,h:6,h:6,w:8,c:8]                                                   3,840                                conv2d_52   |                                    nl_of32[58]                              
------ -------------------------------------------------------- -------------------------------------------------- ---------------- --------- ---------------------------------------- --- --------------- ------------------ ---------------------------------------- 
54     eltwise_54 (Eltwise, MUL)                                [b:1,h:6,h:6,w:8,c:8]                                                     384                                conv2d_52   |                                    eltwise/mul_of32[59]                     
                                                                                                                                                                                 nl_53   | 
------ -------------------------------------------------------- -------------------------------------------------- ---------------- --------- ---------------------------------------- --- --------------- ------------------ ---------------------------------------- 
55     conv2d_55 (Conv2D, CONV_2D)                              [b:1,h:6,h:6,w:8,c:32]                             288/1,152           12,320                               eltwise_54   |                                    conv2d_of32[60]                          
------ -------------------------------------------------------- -------------------------------------------------- ---------------- --------- ---------------------------------------- --- --------------- ------------------ ---------------------------------------- 
56     nl_56 (Nonlinearity, LOGISTIC)                           [b:1,h:6,h:6,w:8,c:32]                                                 15,360                                conv2d_55   |                                    nl_of32[61]                              
------ -------------------------------------------------------- -------------------------------------------------- ---------------- --------- ---------------------------------------- --- --------------- ------------------ ---------------------------------------- 
57     eltwise_57 (Eltwise, MUL)                                [b:1,h:6,h:6,w:8,c:32]                                                  1,536                                conv2d_55   |                                    eltwise/mul_of32[62]                     
                                                                                                                                                                                 nl_56   | 
------ -------------------------------------------------------- -------------------------------------------------- ---------------- --------- ---------------------------------------- --- --------------- ------------------ ---------------------------------------- 
58     eltwise_58 (Eltwise, ADD)                                [b:1,h:6,h:6,w:8,c:32]                                                  1,536                               eltwise_57   |                                    eltwise/sum_of32[63]                     
                                                                                                                                                                            eltwise_48   | 
------ -------------------------------------------------------- -------------------------------------------------- ---------------- --------- ---------------------------------------- --- --------------- ------------------ ---------------------------------------- 
59     conv2d_59 (Conv2D, DEPTHWISE_CONV_2D)                    [b:1,h:6,h:6,w:8,c:16]                             160/640              6,928                                 split_44   |                                    conv2d_of32[46]                          
------ -------------------------------------------------------- -------------------------------------------------- ---------------- --------- ---------------------------------------- --- --------------- ------------------ ---------------------------------------- 
60     conv2d_60 (Conv2D, CONV_2D)                              [b:1,h:6,h:6,w:8,c:32]                             544/2,176           24,608                                conv2d_59   |                                    conv2d_of32[47]                          
------ -------------------------------------------------------- -------------------------------------------------- ---------------- --------- ---------------------------------------- --- --------------- ------------------ ---------------------------------------- 
61     nl_61 (Nonlinearity, LOGISTIC)                           [b:1,h:6,h:6,w:8,c:32]                                                 15,360                                conv2d_60   |                                    nl_of32[48]                              
------ -------------------------------------------------------- -------------------------------------------------- ---------------- --------- ---------------------------------------- --- --------------- ------------------ ---------------------------------------- 
62     eltwise_62 (Eltwise, MUL)                                [b:1,h:6,h:6,w:8,c:32]                                                  1,536                                conv2d_60   |                                    eltwise/mul_of32[49]                     
                                                                                                                                                                                 nl_61   | 
------ -------------------------------------------------------- -------------------------------------------------- ---------------- --------- ---------------------------------------- --- --------------- ------------------ ---------------------------------------- 
63     concat_63 (Concat, CONCATENATION)                        [b:1,h:6,h:6,w:8,c:64]                                                                                      eltwise_58   |                                    concat_of32[64]                          
                                                                                                                                                                            eltwise_62   | 
------ -------------------------------------------------------- -------------------------------------------------- ---------------- --------- ---------------------------------------- --- --------------- ------------------ ---------------------------------------- 
64     conv2d_64 (Conv2D, CONV_2D)                              [b:1,h:6,h:6,w:8,c:32]                             18,464/73,856      884,768                                concat_63   |                                    conv2d_of32[65]                          
------ -------------------------------------------------------- -------------------------------------------------- ---------------- --------- ---------------------------------------- --- --------------- ------------------ ---------------------------------------- 
65     nl_65 (Nonlinearity, LOGISTIC)                           [b:1,h:6,h:6,w:8,c:32]                                                 15,360                                conv2d_64   |                                    nl_of32[66]                              
------ -------------------------------------------------------- -------------------------------------------------- ---------------- --------- ---------------------------------------- --- --------------- ------------------ ---------------------------------------- 
66     eltwise_66 (Eltwise, MUL)                                [b:1,h:6,h:6,w:8,c:32]                                                  1,536                                conv2d_64   |                                    eltwise/mul_of32[67]                     
                                                                                                                                                                                 nl_65   | 
------ -------------------------------------------------------- -------------------------------------------------- ---------------- --------- ---------------------------------------- --- --------------- ------------------ ---------------------------------------- 
67     pool_67 (Pool, REDUCE_MAX)                               [b:1,h:1,h:1,w:1,c:32]                                                  1,536                               eltwise_66   |                                    pool_of32[69]                            
------ -------------------------------------------------------- -------------------------------------------------- ---------------- --------- ---------------------------------------- --- --------------- ------------------ ---------------------------------------- 
68     pool_68 (Pool, MEAN)                                     [b:1,h:1,h:1,w:1,c:32]                                                  1,536                               eltwise_66   |                                    pool_of32[68]                            
------ -------------------------------------------------------- -------------------------------------------------- ---------------- --------- ---------------------------------------- --- --------------- ------------------ ---------------------------------------- 
69     concat_69 (Concat, CONCATENATION)                        [b:1,h:1,h:1,w:1,c:64]                                                                                         pool_68   |                                    concat_of32[70]                          
                                                                                                                                                                               pool_67   | 
------ -------------------------------------------------------- -------------------------------------------------- ---------------- --------- ---------------------------------------- --- --------------- ------------------ ---------------------------------------- 
70     conv2d_70 (Conv2D, CONV_2D)                              [b:1,h:1,h:1,w:1,c:1]                              3,137/12,548         3,137                                concat_69   |                                    conv2d_of32[71]                          
------ -------------------------------------------------------- -------------------------------------------------- ---------------- --------- ---------------------------------------- --- --------------- ------------------ ---------------------------------------- 
71     nl_71 (Nonlinearity, LOGISTIC)                           [b:1,h:1,h:1,w:1,c:1]                                                      10                                conv2d_70   |                                    nl_of32[72]                              
------ -------------------------------------------------------- -------------------------------------------------- ---------------- --------- ---------------------------------------- --- --------------- ------------------ ---------------------------------------- 
72     eltwise_72 (Eltwise, MUL)                                [b:1,h:6,h:6,w:8,c:32]                                                  1,536                               eltwise_66   |                                    eltwise/mul_of32[73]                     
                                                                                                                                                                                 nl_71   | 
------ -------------------------------------------------------- -------------------------------------------------- ---------------- --------- ---------------------------------------- --- --------------- ------------------ ---------------------------------------- 
73     reduce_73 (Reduce, REDUCE_MAX)                           [b:1,h:6,h:6,w:8,c:1]                                                   1,536                               eltwise_72   |                                    reduce_of32[76]                          
------ -------------------------------------------------------- -------------------------------------------------- ---------------- --------- ---------------------------------------- --- --------------- ------------------ ---------------------------------------- 
74     reduce_74 (Reduce, MEAN)                                 [b:1,h:6,h:6,w:8,c:1]                                                   3,072                               eltwise_72   | +4(+100.0%)     -1,488(-48.4%)     reduce_of32/eltwise/mul_of32[74, 75]     
------ -------------------------------------------------------- -------------------------------------------------- ---------------- --------- ---------------------------------------- --- --------------- ------------------ ---------------------------------------- 
75     concat_75 (Concat, CONCATENATION)                        [b:1,h:6,h:6,w:8,c:2]                                                                                        reduce_74   |                                    concat_of32[77]                          
                                                                                                                                                                             reduce_73   | 
------ -------------------------------------------------------- -------------------------------------------------- ---------------- --------- ---------------------------------------- --- --------------- ------------------ ---------------------------------------- 
76     conv2d_76 (Conv2D, CONV_2D)                              [b:1,h:6,h:6,w:8,c:1]                              99/396               4,705                                concat_75   |                                    conv2d_of32[78]                          
------ -------------------------------------------------------- -------------------------------------------------- ---------------- --------- ---------------------------------------- --- --------------- ------------------ ---------------------------------------- 
77     nl_77 (Nonlinearity, LOGISTIC)                           [b:1,h:6,h:6,w:8,c:1]                                                     480                                conv2d_76   |                                    nl_of32[79]                              
------ -------------------------------------------------------- -------------------------------------------------- ---------------- --------- ---------------------------------------- --- --------------- ------------------ ---------------------------------------- 
78     eltwise_78 (Eltwise, MUL)                                [b:1,h:6,h:6,w:8,c:32]                                                     48                                    nl_77   |                                    eltwise/mul_of32[80]                     
                                                                                                                                                                            eltwise_72   | 
------ -------------------------------------------------------- -------------------------------------------------- ---------------- --------- ---------------------------------------- --- --------------- ------------------ ---------------------------------------- 
79     conv2d_79 (Conv2D, CONV_2D)                              [b:1,h:3,h:3,w:4,c:64]                             18,496/73,984      221,248                               eltwise_78   |                                    conv2d_of32[81]                          
------ -------------------------------------------------------- -------------------------------------------------- ---------------- --------- ---------------------------------------- --- --------------- ------------------ ---------------------------------------- 
80     nl_80 (Nonlinearity, LOGISTIC)                           [b:1,h:3,h:3,w:4,c:64]                                                  7,680                                conv2d_79   |                                    nl_of32[82]                              
------ -------------------------------------------------------- -------------------------------------------------- ---------------- --------- ---------------------------------------- --- --------------- ------------------ ---------------------------------------- 
81     eltwise_81 (Eltwise, MUL)                                [b:1,h:3,h:3,w:4,c:64]                                                    768                                conv2d_79   |                                    eltwise/mul_of32[83]                     
                                                                                                                                                                                 nl_80   | 
------ -------------------------------------------------------- -------------------------------------------------- ---------------- --------- ---------------------------------------- --- --------------- ------------------ ---------------------------------------- 
82     split_82 (Split, SPLIT)                                  [b:1,h:3,h:3,w:4,c:32][b:1,h:3,h:3,w:4,c:32]                                                                eltwise_81   |                                    split_of32of32[84]                       
------ -------------------------------------------------------- -------------------------------------------------- ---------------- --------- ---------------------------------------- --- --------------- ------------------ ---------------------------------------- 
83     conv2d_83 (Conv2D, DEPTHWISE_CONV_2D)                    [b:1,h:3,h:3,w:4,c:32]                             320/1,280            3,488                                 split_82   |                                    conv2d_of32[89]                          
------ -------------------------------------------------------- -------------------------------------------------- ---------------- --------- ---------------------------------------- --- --------------- ------------------ ---------------------------------------- 
84     conv2d_84 (Conv2D, CONV_2D)                              [b:1,h:3,h:3,w:4,c:64]                             2,112/8,448         24,640                                conv2d_83   |                                    conv2d_of32[90]                          
------ -------------------------------------------------------- -------------------------------------------------- ---------------- --------- ---------------------------------------- --- --------------- ------------------ ---------------------------------------- 
85     nl_85 (Nonlinearity, LOGISTIC)                           [b:1,h:3,h:3,w:4,c:64]                                                  7,680                                conv2d_84   |                                    nl_of32[91]                              
------ -------------------------------------------------------- -------------------------------------------------- ---------------- --------- ---------------------------------------- --- --------------- ------------------ ---------------------------------------- 
86     eltwise_86 (Eltwise, MUL)                                [b:1,h:3,h:3,w:4,c:64]                                                    768                                conv2d_84   |                                    eltwise/mul_of32[92]                     
                                                                                                                                                                                 nl_85   | 
------ -------------------------------------------------------- -------------------------------------------------- ---------------- --------- ---------------------------------------- --- --------------- ------------------ ---------------------------------------- 
87     conv2d_87 (Conv2D, CONV_2D)                              [b:1,h:3,h:3,w:4,c:16]                             1,040/4,160         12,304                               eltwise_86   |                                    conv2d_of32[93]                          
------ -------------------------------------------------------- -------------------------------------------------- ---------------- --------- ---------------------------------------- --- --------------- ------------------ ---------------------------------------- 
88     nl_88 (Nonlinearity, LOGISTIC)                           [b:1,h:3,h:3,w:4,c:16]                                                  1,920                                conv2d_87   |                                    nl_of32[94]                              
------ -------------------------------------------------------- -------------------------------------------------- ---------------- --------- ---------------------------------------- --- --------------- ------------------ ---------------------------------------- 
89     eltwise_89 (Eltwise, MUL)                                [b:1,h:3,h:3,w:4,c:16]                                                    192                                conv2d_87   |                                    eltwise/mul_of32[95]                     
                                                                                                                                                                                 nl_88   | 
------ -------------------------------------------------------- -------------------------------------------------- ---------------- --------- ---------------------------------------- --- --------------- ------------------ ---------------------------------------- 
90     conv2d_90 (Conv2D, CONV_2D)                              [b:1,h:3,h:3,w:4,c:16]                             2,320/9,280         27,664                               eltwise_89   |                                    conv2d_of32[96]                          
------ -------------------------------------------------------- -------------------------------------------------- ---------------- --------- ---------------------------------------- --- --------------- ------------------ ---------------------------------------- 
91     nl_91 (Nonlinearity, LOGISTIC)                           [b:1,h:3,h:3,w:4,c:16]                                                  1,920                                conv2d_90   |                                    nl_of32[97]                              
------ -------------------------------------------------------- -------------------------------------------------- ---------------- --------- ---------------------------------------- --- --------------- ------------------ ---------------------------------------- 
92     eltwise_92 (Eltwise, MUL)                                [b:1,h:3,h:3,w:4,c:16]                                                    192                                conv2d_90   |                                    eltwise/mul_of32[98]                     
                                                                                                                                                                                 nl_91   | 
------ -------------------------------------------------------- -------------------------------------------------- ---------------- --------- ---------------------------------------- --- --------------- ------------------ ---------------------------------------- 
93     conv2d_93 (Conv2D, CONV_2D)                              [b:1,h:3,h:3,w:4,c:64]                             1,088/4,352         12,352                               eltwise_92   |                                    conv2d_of32[99]                          
------ -------------------------------------------------------- -------------------------------------------------- ---------------- --------- ---------------------------------------- --- --------------- ------------------ ---------------------------------------- 
94     nl_94 (Nonlinearity, LOGISTIC)                           [b:1,h:3,h:3,w:4,c:64]                                                  7,680                                conv2d_93   |                                    nl_of32[100]                             
------ -------------------------------------------------------- -------------------------------------------------- ---------------- --------- ---------------------------------------- --- --------------- ------------------ ---------------------------------------- 
95     eltwise_95 (Eltwise, MUL)                                [b:1,h:3,h:3,w:4,c:64]                                                    768                                conv2d_93   |                                    eltwise/mul_of32[101]                    
                                                                                                                                                                                 nl_94   | 
------ -------------------------------------------------------- -------------------------------------------------- ---------------- --------- ---------------------------------------- --- --------------- ------------------ ---------------------------------------- 
96     eltwise_96 (Eltwise, ADD)                                [b:1,h:3,h:3,w:4,c:64]                                                    768                               eltwise_95   |                                    eltwise/sum_of32[102]                    
                                                                                                                                                                            eltwise_86   | 
------ -------------------------------------------------------- -------------------------------------------------- ---------------- --------- ---------------------------------------- --- --------------- ------------------ ---------------------------------------- 
97     conv2d_97 (Conv2D, DEPTHWISE_CONV_2D)                    [b:1,h:3,h:3,w:4,c:32]                             320/1,280            3,488                                 split_82   |                                    conv2d_of32[85]                          
------ -------------------------------------------------------- -------------------------------------------------- ---------------- --------- ---------------------------------------- --- --------------- ------------------ ---------------------------------------- 
98     conv2d_98 (Conv2D, CONV_2D)                              [b:1,h:3,h:3,w:4,c:64]                             2,112/8,448         24,640                                conv2d_97   |                                    conv2d_of32[86]                          
------ -------------------------------------------------------- -------------------------------------------------- ---------------- --------- ---------------------------------------- --- --------------- ------------------ ---------------------------------------- 
99     nl_99 (Nonlinearity, LOGISTIC)                           [b:1,h:3,h:3,w:4,c:64]                                                  7,680                                conv2d_98   |                                    nl_of32[87]                              
------ -------------------------------------------------------- -------------------------------------------------- ---------------- --------- ---------------------------------------- --- --------------- ------------------ ---------------------------------------- 
100    eltwise_100 (Eltwise, MUL)                               [b:1,h:3,h:3,w:4,c:64]                                                    768                                conv2d_98   |                                    eltwise/mul_of32[88]                     
                                                                                                                                                                                 nl_99   | 
------ -------------------------------------------------------- -------------------------------------------------- ---------------- --------- ---------------------------------------- --- --------------- ------------------ ---------------------------------------- 
101    concat_101 (Concat, CONCATENATION)                       [b:1,h:3,h:3,w:4,c:128]                                                                                     eltwise_96   |                                    concat_of32[103]                         
                                                                                                                                                                           eltwise_100   | 
------ -------------------------------------------------------- -------------------------------------------------- ---------------- --------- ---------------------------------------- --- --------------- ------------------ ---------------------------------------- 
102    conv2d_102 (Conv2D, CONV_2D)                             [b:1,h:3,h:3,w:4,c:64]                             73,792/295,168     884,800                               concat_101   |                                    conv2d_of32[104]                         
------ -------------------------------------------------------- -------------------------------------------------- ---------------- --------- ---------------------------------------- --- --------------- ------------------ ---------------------------------------- 
103    nl_103 (Nonlinearity, LOGISTIC)                          [b:1,h:3,h:3,w:4,c:64]                                                  7,680                               conv2d_102   |                                    nl_of32[105]                             
------ -------------------------------------------------------- -------------------------------------------------- ---------------- --------- ---------------------------------------- --- --------------- ------------------ ---------------------------------------- 
104    eltwise_104 (Eltwise, MUL)                               [b:1,h:3,h:3,w:4,c:64]                                                    768                               conv2d_102   |                                    eltwise/mul_of32[106]                    
                                                                                                                                                                                nl_103   | 
------ -------------------------------------------------------- -------------------------------------------------- ---------------- --------- ---------------------------------------- --- --------------- ------------------ ---------------------------------------- 
105    pool_105 (Pool, REDUCE_MAX)                              [b:1,h:1,h:1,w:1,c:64]                                                    768                              eltwise_104   |                                    pool_of32[108]                           
------ -------------------------------------------------------- -------------------------------------------------- ---------------- --------- ---------------------------------------- --- --------------- ------------------ ---------------------------------------- 
106    pool_106 (Pool, MEAN)                                    [b:1,h:1,h:1,w:1,c:64]                                                    768                              eltwise_104   |                                    pool_of32[107]                           
------ -------------------------------------------------------- -------------------------------------------------- ---------------- --------- ---------------------------------------- --- --------------- ------------------ ---------------------------------------- 
107    concat_107 (Concat, CONCATENATION)                       [b:1,h:1,h:1,w:1,c:128]                                                                                       pool_106   |                                    concat_of32[109]                         
                                                                                                                                                                              pool_105   | 
------ -------------------------------------------------------- -------------------------------------------------- ---------------- --------- ---------------------------------------- --- --------------- ------------------ ---------------------------------------- 
108    conv2d_108 (Conv2D, CONV_2D)                             [b:1,h:1,h:1,w:1,c:1]                              6,273/25,092         6,273                               concat_107   |                                    conv2d_of32[110]                         
------ -------------------------------------------------------- -------------------------------------------------- ---------------- --------- ---------------------------------------- --- --------------- ------------------ ---------------------------------------- 
109    nl_109 (Nonlinearity, LOGISTIC)                          [b:1,h:1,h:1,w:1,c:1]                                                      10                               conv2d_108   |                                    nl_of32[111]                             
------ -------------------------------------------------------- -------------------------------------------------- ---------------- --------- ---------------------------------------- --- --------------- ------------------ ---------------------------------------- 
110    eltwise_110 (Eltwise, MUL)                               [b:1,h:3,h:3,w:4,c:64]                                                    768                              eltwise_104   |                                    eltwise/mul_of32[112]                    
                                                                                                                                                                                nl_109   | 
------ -------------------------------------------------------- -------------------------------------------------- ---------------- --------- ---------------------------------------- --- --------------- ------------------ ---------------------------------------- 
111    reduce_111 (Reduce, REDUCE_MAX)                          [b:1,h:3,h:3,w:4,c:1]                                                     768                              eltwise_110   |                                    reduce_of32[115]                         
------ -------------------------------------------------------- -------------------------------------------------- ---------------- --------- ---------------------------------------- --- --------------- ------------------ ---------------------------------------- 
112    reduce_112 (Reduce, MEAN)                                [b:1,h:3,h:3,w:4,c:1]                                                   1,536                              eltwise_110   | +4(+100.0%)     -756(-49.2%)       reduce_of32/eltwise/mul_of32[113, 114]   
------ -------------------------------------------------------- -------------------------------------------------- ---------------- --------- ---------------------------------------- --- --------------- ------------------ ---------------------------------------- 
113    concat_113 (Concat, CONCATENATION)                       [b:1,h:3,h:3,w:4,c:2]                                                                                       reduce_112   |                                    concat_of32[116]                         
                                                                                                                                                                            reduce_111   | 
------ -------------------------------------------------------- -------------------------------------------------- ---------------- --------- ---------------------------------------- --- --------------- ------------------ ---------------------------------------- 
114    conv2d_114 (Conv2D, CONV_2D)                             [b:1,h:3,h:3,w:4,c:1]                              99/396               1,177                               concat_113   |                                    conv2d_of32[117]                         
------ -------------------------------------------------------- -------------------------------------------------- ---------------- --------- ---------------------------------------- --- --------------- ------------------ ---------------------------------------- 
115    nl_115 (Nonlinearity, LOGISTIC)                          [b:1,h:3,h:3,w:4,c:1]                                                     120                               conv2d_114   |                                    nl_of32[118]                             
------ -------------------------------------------------------- -------------------------------------------------- ---------------- --------- ---------------------------------------- --- --------------- ------------------ ---------------------------------------- 
116    eltwise_116 (Eltwise, MUL)                               [b:1,h:3,h:3,w:4,c:64]                                                     12                                   nl_115   |                                    eltwise/mul_of32[119]                    
                                                                                                                                                                           eltwise_110   | 
------ -------------------------------------------------------- -------------------------------------------------- ---------------- --------- ---------------------------------------- --- --------------- ------------------ ---------------------------------------- 
117    pool_117 (Pool, MEAN)                                    [b:1,h:1,h:1,w:1,c:64]                                                    768                              eltwise_116   |                                    pool_of32[120]                           
       reshape_117_reshape (Reshape, MEAN)                      [b:1,c:64]                                                                                                    pool_117   |                                    
------ -------------------------------------------------------- -------------------------------------------------- ---------------- --------- ---------------------------------------- --- --------------- ------------------ ---------------------------------------- 
118    model_2_dense_2_MatMul (Placeholder, )                   [h:5,h:5,c:64]                                     320/1,280                                                             | +20(+1.6%)      +325(+100.0%)      dense_of32[121]                          
       model_2_dense_2_BiasAdd_ReadVariableOp (Placeholder, )   [c:5]                                              5/20                                                                  | -20(-100.0%)                       
       gemm_118 (Gemm, FULLY_CONNECTED)                         [b:1,c:5]                                                                 325                      reshape_117_reshape   |                 -325(-100.0%)      
                                                                                                                                                                model_2_dense_2_MatMul   | 
                                                                                                                                                model_2_dense_2_BiasAdd_ReadVariableOp   | 
------ -------------------------------------------------------- -------------------------------------------------- ---------------- --------- ---------------------------------------- --- --------------- ------------------ ---------------------------------------- 
119    nl_119 (Nonlinearity, SOFTMAX)                           [b:1,c:5]                                                                  75                                 gemm_118   |                                    nl_of32[o][122]                          
------ -------------------------------------------------------- -------------------------------------------------- ---------------- --------- ---------------------------------------- --- --------------- ------------------ ---------------------------------------- 
model/c-model: macc=3,999,036/3,993,912 -5,124(-0.1%) weights=579,828/579,820 -8(-0.0%) activations=--/49,152 io=--/0



Generated C-graph summary
------------------------------------------------------------------------------------------------------------------------
model name            : model_depthwise
c-name                : model
c-node #              : 123
c-array #             : 195
activations size      : 49152 (1 segment)
weights size          : 579820 (1 segment)
macc                  : 3993912
inputs                : ['serving_default_input_30_output']
outputs               : ['nl_119_output']

C-Arrays (195)
------ --------------------------------- -------------- ------------------------- ------------- --------- --------- 
c_id   name (*_array)                    item/size      domain/mem-pool           c-type        fmt       comment   
------ --------------------------------- -------------- ------------------------- ------------- --------- --------- 
0      conv2d_7_weights                  72/288         weights/weights           const float   float32             
1      conv2d_7_bias                     8/32           weights/weights           const float   float32             
2      conv2d_8_weights                  128/512        weights/weights           const float   float32             
3      conv2d_8_bias                     16/64          weights/weights           const float   float32             
4      conv2d_11_weights                 64/256         weights/weights           const float   float32             
5      conv2d_11_bias                    4/16           weights/weights           const float   float32             
6      conv2d_14_weights                 144/576        weights/weights           const float   float32             
7      conv2d_14_bias                    4/16           weights/weights           const float   float32             
8      conv2d_17_weights                 64/256         weights/weights           const float   float32             
9      conv2d_17_bias                    16/64          weights/weights           const float   float32             
10     conv2d_26_weights                 4608/18432     weights/weights           const float   float32             
11     conv2d_26_bias                    16/64          weights/weights           const float   float32             
12     conv2d_32_weights                 1568/6272      weights/weights           const float   float32             
13     conv2d_32_bias                    1/4            weights/weights           const float   float32             
14     conv2d_38_weights                 98/392         weights/weights           const float   float32             
15     conv2d_41_weights                 4608/18432     weights/weights           const float   float32             
16     conv2d_41_bias                    32/128         weights/weights           const float   float32             
17     conv2d_59_weights                 144/576        weights/weights           const float   float32             
18     conv2d_59_bias                    16/64          weights/weights           const float   float32             
19     conv2d_60_weights                 512/2048       weights/weights           const float   float32             
20     conv2d_60_bias                    32/128         weights/weights           const float   float32             
21     conv2d_45_weights                 144/576        weights/weights           const float   float32             
22     conv2d_45_bias                    16/64          weights/weights           const float   float32             
23     conv2d_46_weights                 512/2048       weights/weights           const float   float32             
24     conv2d_46_bias                    32/128         weights/weights           const float   float32             
25     conv2d_49_weights                 256/1024       weights/weights           const float   float32             
26     conv2d_49_bias                    8/32           weights/weights           const float   float32             
27     conv2d_52_weights                 576/2304       weights/weights           const float   float32             
28     conv2d_52_bias                    8/32           weights/weights           const float   float32             
29     conv2d_55_weights                 256/1024       weights/weights           const float   float32             
30     conv2d_55_bias                    32/128         weights/weights           const float   float32             
31     conv2d_64_weights                 18432/73728    weights/weights           const float   float32             
32     conv2d_64_bias                    32/128         weights/weights           const float   float32             
33     conv2d_70_weights                 3136/12544     weights/weights           const float   float32             
34     conv2d_76_weights                 98/392         weights/weights           const float   float32             
35     conv2d_79_weights                 18432/73728    weights/weights           const float   float32             
36     conv2d_79_bias                    64/256         weights/weights           const float   float32             
37     conv2d_97_weights                 288/1152       weights/weights           const float   float32             
38     conv2d_97_bias                    32/128         weights/weights           const float   float32             
39     conv2d_98_weights                 2048/8192      weights/weights           const float   float32             
40     conv2d_98_bias                    64/256         weights/weights           const float   float32             
41     conv2d_83_weights                 288/1152       weights/weights           const float   float32             
42     conv2d_83_bias                    32/128         weights/weights           const float   float32             
43     conv2d_84_weights                 2048/8192      weights/weights           const float   float32             
44     conv2d_84_bias                    64/256         weights/weights           const float   float32             
45     conv2d_87_weights                 1024/4096      weights/weights           const float   float32             
46     conv2d_87_bias                    16/64          weights/weights           const float   float32             
47     conv2d_90_weights                 2304/9216      weights/weights           const float   float32             
48     conv2d_90_bias                    16/64          weights/weights           const float   float32             
49     conv2d_93_weights                 1024/4096      weights/weights           const float   float32             
50     conv2d_93_bias                    64/256         weights/weights           const float   float32             
51     conv2d_102_weights                73728/294912   weights/weights           const float   float32             
52     conv2d_102_bias                   64/256         weights/weights           const float   float32             
53     conv2d_108_weights                6272/25088     weights/weights           const float   float32             
54     conv2d_114_weights                98/392         weights/weights           const float   float32             
55     gemm_118_weights                  320/1280       weights/weights           const float   float32             
56     gemm_118_bias                     5/20           weights/weights           const float   float32             
57     serving_default_input_30_output   768/3072       activations/**default**   float         float32   /input    
58     conv2d_0_output                   768/3072       activations/**default**   float         float32             
59     nl_1_output                       768/3072       activations/**default**   float         float32             
60     eltwise_2_output                  768/3072       activations/**default**   float         float32             
61     conv2d_3_output                   3072/12288     activations/**default**   float         float32             
62     nl_4_output                       3072/12288     activations/**default**   float         float32             
63     eltwise_5_output                  3072/12288     activations/**default**   float         float32             
64     split_6_output0                   1536/6144      activations/**default**   float         float32             
65     split_6_output1                   1536/6144      activations/**default**   float         float32             
66     conv2d_21_output                  1536/6144      activations/**default**   float         float32             
67     conv2d_22_output                  3072/12288     activations/**default**   float         float32             
68     nl_23_output                      3072/12288     activations/**default**   float         float32             
69     eltwise_24_output                 3072/12288     activations/**default**   float         float32             
70     conv2d_7_output                   1536/6144      activations/**default**   float         float32             
71     conv2d_8_output                   3072/12288     activations/**default**   float         float32             
72     nl_9_output                       3072/12288     activations/**default**   float         float32             
73     eltwise_10_output                 3072/12288     activations/**default**   float         float32             
74     conv2d_11_output                  768/3072       activations/**default**   float         float32             
75     nl_12_output                      768/3072       activations/**default**   float         float32             
76     eltwise_13_output                 768/3072       activations/**default**   float         float32             
77     conv2d_14_output                  768/3072       activations/**default**   float         float32             
78     nl_15_output                      768/3072       activations/**default**   float         float32             
79     eltwise_16_output                 768/3072       activations/**default**   float         float32             
80     conv2d_17_output                  3072/12288     activations/**default**   float         float32             
81     nl_18_output                      3072/12288     activations/**default**   float         float32             
82     eltwise_19_output                 3072/12288     activations/**default**   float         float32             
83     eltwise_20_output                 3072/12288     activations/**default**   float         float32             
84     concat_25_output                  6144/24576     activations/**default**   float         float32             
85     conv2d_26_output                  3072/12288     activations/**default**   float         float32             
86     nl_27_output                      3072/12288     activations/**default**   float         float32             
87     eltwise_28_output                 3072/12288     activations/**default**   float         float32             
88     pool_30_output                    16/64          activations/**default**   float         float32             
89     pool_29_output                    16/64          activations/**default**   float         float32             
90     concat_31_output                  32/128         activations/**default**   float         float32             
91     conv2d_32_output                  1/4            activations/**default**   float         float32             
92     nl_33_output                      1/4            activations/**default**   float         float32             
93     eltwise_34_output                 3072/12288     activations/**default**   float         float32             
94     reduce_36_output                  192/768        activations/**default**   float         float32             
95     reduce_36_Mul_output              192/768        activations/**default**   float         float32             
96     reduce_35_output                  192/768        activations/**default**   float         float32             
97     concat_37_output                  384/1536       activations/**default**   float         float32             
98     conv2d_38_output                  192/768        activations/**default**   float         float32             
99     nl_39_output                      192/768        activations/**default**   float         float32             
100    eltwise_40_output                 3072/12288     activations/**default**   float         float32             
101    conv2d_41_output                  1536/6144      activations/**default**   float         float32             
102    nl_42_output                      1536/6144      activations/**default**   float         float32             
103    eltwise_43_output                 1536/6144      activations/**default**   float         float32             
104    split_44_output0                  768/3072       activations/**default**   float         float32             
105    split_44_output1                  768/3072       activations/**default**   float         float32             
106    conv2d_59_output                  768/3072       activations/**default**   float         float32             
107    conv2d_60_output                  1536/6144      activations/**default**   float         float32             
108    nl_61_output                      1536/6144      activations/**default**   float         float32             
109    eltwise_62_output                 1536/6144      activations/**default**   float         float32             
110    conv2d_45_output                  768/3072       activations/**default**   float         float32             
111    conv2d_46_output                  1536/6144      activations/**default**   float         float32             
112    nl_47_output                      1536/6144      activations/**default**   float         float32             
113    eltwise_48_output                 1536/6144      activations/**default**   float         float32             
114    conv2d_49_output                  384/1536       activations/**default**   float         float32             
115    nl_50_output                      384/1536       activations/**default**   float         float32             
116    eltwise_51_output                 384/1536       activations/**default**   float         float32             
117    conv2d_52_output                  384/1536       activations/**default**   float         float32             
118    nl_53_output                      384/1536       activations/**default**   float         float32             
119    eltwise_54_output                 384/1536       activations/**default**   float         float32             
120    conv2d_55_output                  1536/6144      activations/**default**   float         float32             
121    nl_56_output                      1536/6144      activations/**default**   float         float32             
122    eltwise_57_output                 1536/6144      activations/**default**   float         float32             
123    eltwise_58_output                 1536/6144      activations/**default**   float         float32             
124    concat_63_output                  3072/12288     activations/**default**   float         float32             
125    conv2d_64_output                  1536/6144      activations/**default**   float         float32             
126    nl_65_output                      1536/6144      activations/**default**   float         float32             
127    eltwise_66_output                 1536/6144      activations/**default**   float         float32             
128    pool_68_output                    32/128         activations/**default**   float         float32             
129    pool_67_output                    32/128         activations/**default**   float         float32             
130    concat_69_output                  64/256         activations/**default**   float         float32             
131    conv2d_70_output                  1/4            activations/**default**   float         float32             
132    nl_71_output                      1/4            activations/**default**   float         float32             
133    eltwise_72_output                 1536/6144      activations/**default**   float         float32             
134    reduce_74_output                  48/192         activations/**default**   float         float32             
135    reduce_74_Mul_output              48/192         activations/**default**   float         float32             
136    reduce_73_output                  48/192         activations/**default**   float         float32             
137    concat_75_output                  96/384         activations/**default**   float         float32             
138    conv2d_76_output                  48/192         activations/**default**   float         float32             
139    nl_77_output                      48/192         activations/**default**   float         float32             
140    eltwise_78_output                 1536/6144      activations/**default**   float         float32             
141    conv2d_79_output                  768/3072       activations/**default**   float         float32             
142    nl_80_output                      768/3072       activations/**default**   float         float32             
143    eltwise_81_output                 768/3072       activations/**default**   float         float32             
144    split_82_output0                  384/1536       activations/**default**   float         float32             
145    split_82_output1                  384/1536       activations/**default**   float         float32             
146    conv2d_97_output                  384/1536       activations/**default**   float         float32             
147    conv2d_98_output                  768/3072       activations/**default**   float         float32             
148    nl_99_output                      768/3072       activations/**default**   float         float32             
149    eltwise_100_output                768/3072       activations/**default**   float         float32             
150    conv2d_83_output                  384/1536       activations/**default**   float         float32             
151    conv2d_84_output                  768/3072       activations/**default**   float         float32             
152    nl_85_output                      768/3072       activations/**default**   float         float32             
153    eltwise_86_output                 768/3072       activations/**default**   float         float32             
154    conv2d_87_output                  192/768        activations/**default**   float         float32             
155    nl_88_output                      192/768        activations/**default**   float         float32             
156    eltwise_89_output                 192/768        activations/**default**   float         float32             
157    conv2d_90_output                  192/768        activations/**default**   float         float32             
158    nl_91_output                      192/768        activations/**default**   float         float32             
159    eltwise_92_output                 192/768        activations/**default**   float         float32             
160    conv2d_93_output                  768/3072       activations/**default**   float         float32             
161    nl_94_output                      768/3072       activations/**default**   float         float32             
162    eltwise_95_output                 768/3072       activations/**default**   float         float32             
163    eltwise_96_output                 768/3072       activations/**default**   float         float32             
164    concat_101_output                 1536/6144      activations/**default**   float         float32             
165    conv2d_102_output                 768/3072       activations/**default**   float         float32             
166    nl_103_output                     768/3072       activations/**default**   float         float32             
167    eltwise_104_output                768/3072       activations/**default**   float         float32             
168    pool_106_output                   64/256         activations/**default**   float         float32             
169    pool_105_output                   64/256         activations/**default**   float         float32             
170    concat_107_output                 128/512        activations/**default**   float         float32             
171    conv2d_108_output                 1/4            activations/**default**   float         float32             
172    nl_109_output                     1/4            activations/**default**   float         float32             
173    eltwise_110_output                768/3072       activations/**default**   float         float32             
174    reduce_112_output                 12/48          activations/**default**   float         float32             
175    reduce_112_Mul_output             12/48          activations/**default**   float         float32             
176    reduce_111_output                 12/48          activations/**default**   float         float32             
177    concat_113_output                 24/96          activations/**default**   float         float32             
178    conv2d_114_output                 12/48          activations/**default**   float         float32             
179    nl_115_output                     12/48          activations/**default**   float         float32             
180    eltwise_116_output                768/3072       activations/**default**   float         float32             
181    pool_117_output                   64/256         activations/**default**   float         float32             
182    gemm_118_output                   5/20           activations/**default**   float         float32             
183    nl_119_output                     5/20           activations/**default**   float         float32   /output   
184    reduce_112_Placeholder            1/4            weights/weights           const float   float32             
185    reduce_74_Placeholder             1/4            weights/weights           const float   float32             
186    reduce_36_Placeholder             1/4            weights/weights           const float   float32             
187    conv2d_0_weights                  144/576        weights/weights           const float   float32             
188    conv2d_0_bias                     4/16           weights/weights           const float   float32             
189    conv2d_3_weights                  576/2304       weights/weights           const float   float32             
190    conv2d_3_bias                     16/64          weights/weights           const float   float32             
191    conv2d_21_weights                 72/288         weights/weights           const float   float32             
192    conv2d_21_bias                    8/32           weights/weights           const float   float32             
193    conv2d_22_weights                 128/512        weights/weights           const float   float32             
194    conv2d_22_bias                    16/64          weights/weights           const float   float32             
------ --------------------------------- -------------- ------------------------- ------------- --------- --------- 

C-Layers (123)
------ ---------------- ----- -------------- -------- -------- ------------------------------------ -------------------- 
c_id   name (*_layer)   id    layer_type     macc     rom      tensors                              shape (array id)     
------ ---------------- ----- -------------- -------- -------- ------------------------------------ -------------------- 
0      conv2d_0         0     conv2d         27652    592      I: serving_default_input_30_output   (1,24,32,1) (57)     
                                                               W: conv2d_0_weights                  (1,6,6,4) (187)      
                                                               W: conv2d_0_bias                     (4,) (188)           
                                                               O: conv2d_0_output                   (1,12,16,4) (58)     
------ ---------------- ----- -------------- -------- -------- ------------------------------------ -------------------- 
1      nl_1             1     nl             7680     0        I: conv2d_0_output                   (1,12,16,4) (58)     
                                                               O: nl_1_output                       (1,12,16,4) (59)     
------ ---------------- ----- -------------- -------- -------- ------------------------------------ -------------------- 
2      eltwise_2        2     eltwise/mul    768      0        I: conv2d_0_output                   (1,12,16,4) (58)     
                                                               I: nl_1_output                       (1,12,16,4) (59)     
                                                               O: eltwise_2_output                  (1,12,16,4) (60)     
------ ---------------- ----- -------------- -------- -------- ------------------------------------ -------------------- 
3      conv2d_3         3     conv2d         110608   2368     I: eltwise_2_output                  (1,12,16,4) (60)     
                                                               W: conv2d_3_weights                  (4,3,3,16) (189)     
                                                               W: conv2d_3_bias                     (16,) (190)          
                                                               O: conv2d_3_output                   (1,12,16,16) (61)    
------ ---------------- ----- -------------- -------- -------- ------------------------------------ -------------------- 
4      nl_4             4     nl             30720    0        I: conv2d_3_output                   (1,12,16,16) (61)    
                                                               O: nl_4_output                       (1,12,16,16) (62)    
------ ---------------- ----- -------------- -------- -------- ------------------------------------ -------------------- 
5      eltwise_5        5     eltwise/mul    3072     0        I: conv2d_3_output                   (1,12,16,16) (61)    
                                                               I: nl_4_output                       (1,12,16,16) (62)    
                                                               O: eltwise_5_output                  (1,12,16,16) (63)    
------ ---------------- ----- -------------- -------- -------- ------------------------------------ -------------------- 
6      split_6          6     split          0        0        I: eltwise_5_output                  (1,12,16,16) (63)    
                                                               O: split_6_output0                   (1,12,16,8) (64)     
                                                               O: split_6_output1                   (1,12,16,8) (65)     
------ ---------------- ----- -------------- -------- -------- ------------------------------------ -------------------- 
7      conv2d_21        21    conv2d         13832    320      I: split_6_output1                   (1,12,16,8) (65)     
                                                               W: conv2d_21_weights                 (8,3,3,1) (191)      
                                                               W: conv2d_21_bias                    (8,) (192)           
                                                               O: conv2d_21_output                  (1,12,16,8) (66)     
------ ---------------- ----- -------------- -------- -------- ------------------------------------ -------------------- 
8      conv2d_22        22    conv2d         24592    576      I: conv2d_21_output                  (1,12,16,8) (66)     
                                                               W: conv2d_22_weights                 (8,1,1,16) (193)     
                                                               W: conv2d_22_bias                    (16,) (194)          
                                                               O: conv2d_22_output                  (1,12,16,16) (67)    
------ ---------------- ----- -------------- -------- -------- ------------------------------------ -------------------- 
9      nl_23            23    nl             30720    0        I: conv2d_22_output                  (1,12,16,16) (67)    
                                                               O: nl_23_output                      (1,12,16,16) (68)    
------ ---------------- ----- -------------- -------- -------- ------------------------------------ -------------------- 
10     eltwise_24       24    eltwise/mul    3072     0        I: conv2d_22_output                  (1,12,16,16) (67)    
                                                               I: nl_23_output                      (1,12,16,16) (68)    
                                                               O: eltwise_24_output                 (1,12,16,16) (69)    
------ ---------------- ----- -------------- -------- -------- ------------------------------------ -------------------- 
11     conv2d_7         7     conv2d         13832    320      I: split_6_output0                   (1,12,16,8) (64)     
                                                               W: conv2d_7_weights                  (8,3,3,1) (0)        
                                                               W: conv2d_7_bias                     (8,) (1)             
                                                               O: conv2d_7_output                   (1,12,16,8) (70)     
------ ---------------- ----- -------------- -------- -------- ------------------------------------ -------------------- 
12     conv2d_8         8     conv2d         24592    576      I: conv2d_7_output                   (1,12,16,8) (70)     
                                                               W: conv2d_8_weights                  (8,1,1,16) (2)       
                                                               W: conv2d_8_bias                     (16,) (3)            
                                                               O: conv2d_8_output                   (1,12,16,16) (71)    
------ ---------------- ----- -------------- -------- -------- ------------------------------------ -------------------- 
13     nl_9             9     nl             30720    0        I: conv2d_8_output                   (1,12,16,16) (71)    
                                                               O: nl_9_output                       (1,12,16,16) (72)    
------ ---------------- ----- -------------- -------- -------- ------------------------------------ -------------------- 
14     eltwise_10       10    eltwise/mul    3072     0        I: conv2d_8_output                   (1,12,16,16) (71)    
                                                               I: nl_9_output                       (1,12,16,16) (72)    
                                                               O: eltwise_10_output                 (1,12,16,16) (73)    
------ ---------------- ----- -------------- -------- -------- ------------------------------------ -------------------- 
15     conv2d_11        11    conv2d         12292    272      I: eltwise_10_output                 (1,12,16,16) (73)    
                                                               W: conv2d_11_weights                 (16,1,1,4) (4)       
                                                               W: conv2d_11_bias                    (4,) (5)             
                                                               O: conv2d_11_output                  (1,12,16,4) (74)     
------ ---------------- ----- -------------- -------- -------- ------------------------------------ -------------------- 
16     nl_12            12    nl             7680     0        I: conv2d_11_output                  (1,12,16,4) (74)     
                                                               O: nl_12_output                      (1,12,16,4) (75)     
------ ---------------- ----- -------------- -------- -------- ------------------------------------ -------------------- 
17     eltwise_13       13    eltwise/mul    768      0        I: conv2d_11_output                  (1,12,16,4) (74)     
                                                               I: nl_12_output                      (1,12,16,4) (75)     
                                                               O: eltwise_13_output                 (1,12,16,4) (76)     
------ ---------------- ----- -------------- -------- -------- ------------------------------------ -------------------- 
18     conv2d_14        14    conv2d         27652    592      I: eltwise_13_output                 (1,12,16,4) (76)     
                                                               W: conv2d_14_weights                 (4,3,3,4) (6)        
                                                               W: conv2d_14_bias                    (4,) (7)             
                                                               O: conv2d_14_output                  (1,12,16,4) (77)     
------ ---------------- ----- -------------- -------- -------- ------------------------------------ -------------------- 
19     nl_15            15    nl             7680     0        I: conv2d_14_output                  (1,12,16,4) (77)     
                                                               O: nl_15_output                      (1,12,16,4) (78)     
------ ---------------- ----- -------------- -------- -------- ------------------------------------ -------------------- 
20     eltwise_16       16    eltwise/mul    768      0        I: conv2d_14_output                  (1,12,16,4) (77)     
                                                               I: nl_15_output                      (1,12,16,4) (78)     
                                                               O: eltwise_16_output                 (1,12,16,4) (79)     
------ ---------------- ----- -------------- -------- -------- ------------------------------------ -------------------- 
21     conv2d_17        17    conv2d         12304    320      I: eltwise_16_output                 (1,12,16,4) (79)     
                                                               W: conv2d_17_weights                 (4,1,1,16) (8)       
                                                               W: conv2d_17_bias                    (16,) (9)            
                                                               O: conv2d_17_output                  (1,12,16,16) (80)    
------ ---------------- ----- -------------- -------- -------- ------------------------------------ -------------------- 
22     nl_18            18    nl             30720    0        I: conv2d_17_output                  (1,12,16,16) (80)    
                                                               O: nl_18_output                      (1,12,16,16) (81)    
------ ---------------- ----- -------------- -------- -------- ------------------------------------ -------------------- 
23     eltwise_19       19    eltwise/mul    3072     0        I: conv2d_17_output                  (1,12,16,16) (80)    
                                                               I: nl_18_output                      (1,12,16,16) (81)    
                                                               O: eltwise_19_output                 (1,12,16,16) (82)    
------ ---------------- ----- -------------- -------- -------- ------------------------------------ -------------------- 
24     eltwise_20       20    eltwise/sum    3072     0        I: eltwise_19_output                 (1,12,16,16) (82)    
                                                               I: eltwise_10_output                 (1,12,16,16) (73)    
                                                               O: eltwise_20_output                 (1,12,16,16) (83)    
------ ---------------- ----- -------------- -------- -------- ------------------------------------ -------------------- 
25     concat_25        25    concat         0        0        I: eltwise_20_output                 (1,12,16,16) (83)    
                                                               I: eltwise_24_output                 (1,12,16,16) (69)    
                                                               O: concat_25_output                  (1,12,16,32) (84)    
------ ---------------- ----- -------------- -------- -------- ------------------------------------ -------------------- 
26     conv2d_26        26    conv2d         884752   18496    I: concat_25_output                  (1,12,16,32) (84)    
                                                               W: conv2d_26_weights                 (32,3,3,16) (10)     
                                                               W: conv2d_26_bias                    (16,) (11)           
                                                               O: conv2d_26_output                  (1,12,16,16) (85)    
------ ---------------- ----- -------------- -------- -------- ------------------------------------ -------------------- 
27     nl_27            27    nl             30720    0        I: conv2d_26_output                  (1,12,16,16) (85)    
                                                               O: nl_27_output                      (1,12,16,16) (86)    
------ ---------------- ----- -------------- -------- -------- ------------------------------------ -------------------- 
28     eltwise_28       28    eltwise/mul    3072     0        I: conv2d_26_output                  (1,12,16,16) (85)    
                                                               I: nl_27_output                      (1,12,16,16) (86)    
                                                               O: eltwise_28_output                 (1,12,16,16) (87)    
------ ---------------- ----- -------------- -------- -------- ------------------------------------ -------------------- 
29     pool_30          30    pool           3072     0        I: eltwise_28_output                 (1,12,16,16) (87)    
                                                               O: pool_30_output                    (1,1,1,16) (88)      
------ ---------------- ----- -------------- -------- -------- ------------------------------------ -------------------- 
30     pool_29          29    pool           3072     0        I: eltwise_28_output                 (1,12,16,16) (87)    
                                                               O: pool_29_output                    (1,1,1,16) (89)      
------ ---------------- ----- -------------- -------- -------- ------------------------------------ -------------------- 
31     concat_31        31    concat         0        0        I: pool_30_output                    (1,1,1,16) (88)      
                                                               I: pool_29_output                    (1,1,1,16) (89)      
                                                               O: concat_31_output                  (1,1,1,32) (90)      
------ ---------------- ----- -------------- -------- -------- ------------------------------------ -------------------- 
32     conv2d_32        32    conv2d         1569     6276     I: concat_31_output                  (1,1,1,32) (90)      
                                                               W: conv2d_32_weights                 (32,7,7,1) (12)      
                                                               W: conv2d_32_bias                    (1,) (13)            
                                                               O: conv2d_32_output                  (1,1,1,1) (91)       
------ ---------------- ----- -------------- -------- -------- ------------------------------------ -------------------- 
33     nl_33            33    nl             10       0        I: conv2d_32_output                  (1,1,1,1) (91)       
                                                               O: nl_33_output                      (1,1,1,1) (92)       
------ ---------------- ----- -------------- -------- -------- ------------------------------------ -------------------- 
34     eltwise_34       34    eltwise/mul    3072     0        I: eltwise_28_output                 (1,12,16,16) (87)    
                                                               I: nl_33_output                      (1,1,1,1) (92)       
                                                               O: eltwise_34_output                 (1,12,16,16) (93)    
------ ---------------- ----- -------------- -------- -------- ------------------------------------ -------------------- 
35     reduce_36        36    reduce         3072     0        I: eltwise_34_output                 (1,12,16,16) (93)    
                                                               O: reduce_36_output                  (1,12,16,1) (94)     
------ ---------------- ----- -------------- -------- -------- ------------------------------------ -------------------- 
36     reduce_36_Mul    36    eltwise/mul    192      4        I: reduce_36_output                  (1,12,16,1) (94)     
                                                               I: reduce_36_Placeholder             (1,) (186)           
                                                               O: reduce_36_Mul_output              (1,12,16,1) (95)     
------ ---------------- ----- -------------- -------- -------- ------------------------------------ -------------------- 
37     reduce_35        35    reduce         3072     0        I: eltwise_34_output                 (1,12,16,16) (93)    
                                                               O: reduce_35_output                  (1,12,16,1) (96)     
------ ---------------- ----- -------------- -------- -------- ------------------------------------ -------------------- 
38     concat_37        37    concat         0        0        I: reduce_36_Mul_output              (1,12,16,1) (95)     
                                                               I: reduce_35_output                  (1,12,16,1) (96)     
                                                               O: concat_37_output                  (1,12,16,2) (97)     
------ ---------------- ----- -------------- -------- -------- ------------------------------------ -------------------- 
39     conv2d_38        38    conv2d         18817    396      I: concat_37_output                  (1,12,16,2) (97)     
                                                               W: conv2d_38_weights                 (2,7,7,1) (14)       
                                                               W: conv2d_32_bias                    (1,) (13)            
                                                               O: conv2d_38_output                  (1,12,16,1) (98)     
------ ---------------- ----- -------------- -------- -------- ------------------------------------ -------------------- 
40     nl_39            39    nl             1920     0        I: conv2d_38_output                  (1,12,16,1) (98)     
                                                               O: nl_39_output                      (1,12,16,1) (99)     
------ ---------------- ----- -------------- -------- -------- ------------------------------------ -------------------- 
41     eltwise_40       40    eltwise/mul    192      0        I: nl_39_output                      (1,12,16,1) (99)     
                                                               I: eltwise_34_output                 (1,12,16,16) (93)    
                                                               O: eltwise_40_output                 (1,12,16,16) (100)   
------ ---------------- ----- -------------- -------- -------- ------------------------------------ -------------------- 
42     conv2d_41        41    conv2d         221216   18560    I: eltwise_40_output                 (1,12,16,16) (100)   
                                                               W: conv2d_41_weights                 (16,3,3,32) (15)     
                                                               W: conv2d_41_bias                    (32,) (16)           
                                                               O: conv2d_41_output                  (1,6,8,32) (101)     
------ ---------------- ----- -------------- -------- -------- ------------------------------------ -------------------- 
43     nl_42            42    nl             15360    0        I: conv2d_41_output                  (1,6,8,32) (101)     
                                                               O: nl_42_output                      (1,6,8,32) (102)     
------ ---------------- ----- -------------- -------- -------- ------------------------------------ -------------------- 
44     eltwise_43       43    eltwise/mul    1536     0        I: conv2d_41_output                  (1,6,8,32) (101)     
                                                               I: nl_42_output                      (1,6,8,32) (102)     
                                                               O: eltwise_43_output                 (1,6,8,32) (103)     
------ ---------------- ----- -------------- -------- -------- ------------------------------------ -------------------- 
45     split_44         44    split          0        0        I: eltwise_43_output                 (1,6,8,32) (103)     
                                                               O: split_44_output0                  (1,6,8,16) (104)     
                                                               O: split_44_output1                  (1,6,8,16) (105)     
------ ---------------- ----- -------------- -------- -------- ------------------------------------ -------------------- 
46     conv2d_59        59    conv2d         6928     640      I: split_44_output1                  (1,6,8,16) (105)     
                                                               W: conv2d_59_weights                 (16,3,3,1) (17)      
                                                               W: conv2d_59_bias                    (16,) (18)           
                                                               O: conv2d_59_output                  (1,6,8,16) (106)     
------ ---------------- ----- -------------- -------- -------- ------------------------------------ -------------------- 
47     conv2d_60        60    conv2d         24608    2176     I: conv2d_59_output                  (1,6,8,16) (106)     
                                                               W: conv2d_60_weights                 (16,1,1,32) (19)     
                                                               W: conv2d_60_bias                    (32,) (20)           
                                                               O: conv2d_60_output                  (1,6,8,32) (107)     
------ ---------------- ----- -------------- -------- -------- ------------------------------------ -------------------- 
48     nl_61            61    nl             15360    0        I: conv2d_60_output                  (1,6,8,32) (107)     
                                                               O: nl_61_output                      (1,6,8,32) (108)     
------ ---------------- ----- -------------- -------- -------- ------------------------------------ -------------------- 
49     eltwise_62       62    eltwise/mul    1536     0        I: conv2d_60_output                  (1,6,8,32) (107)     
                                                               I: nl_61_output                      (1,6,8,32) (108)     
                                                               O: eltwise_62_output                 (1,6,8,32) (109)     
------ ---------------- ----- -------------- -------- -------- ------------------------------------ -------------------- 
50     conv2d_45        45    conv2d         6928     640      I: split_44_output0                  (1,6,8,16) (104)     
                                                               W: conv2d_45_weights                 (16,3,3,1) (21)      
                                                               W: conv2d_45_bias                    (16,) (22)           
                                                               O: conv2d_45_output                  (1,6,8,16) (110)     
------ ---------------- ----- -------------- -------- -------- ------------------------------------ -------------------- 
51     conv2d_46        46    conv2d         24608    2176     I: conv2d_45_output                  (1,6,8,16) (110)     
                                                               W: conv2d_46_weights                 (16,1,1,32) (23)     
                                                               W: conv2d_46_bias                    (32,) (24)           
                                                               O: conv2d_46_output                  (1,6,8,32) (111)     
------ ---------------- ----- -------------- -------- -------- ------------------------------------ -------------------- 
52     nl_47            47    nl             15360    0        I: conv2d_46_output                  (1,6,8,32) (111)     
                                                               O: nl_47_output                      (1,6,8,32) (112)     
------ ---------------- ----- -------------- -------- -------- ------------------------------------ -------------------- 
53     eltwise_48       48    eltwise/mul    1536     0        I: conv2d_46_output                  (1,6,8,32) (111)     
                                                               I: nl_47_output                      (1,6,8,32) (112)     
                                                               O: eltwise_48_output                 (1,6,8,32) (113)     
------ ---------------- ----- -------------- -------- -------- ------------------------------------ -------------------- 
54     conv2d_49        49    conv2d         12296    1056     I: eltwise_48_output                 (1,6,8,32) (113)     
                                                               W: conv2d_49_weights                 (32,1,1,8) (25)      
                                                               W: conv2d_49_bias                    (8,) (26)            
                                                               O: conv2d_49_output                  (1,6,8,8) (114)      
------ ---------------- ----- -------------- -------- -------- ------------------------------------ -------------------- 
55     nl_50            50    nl             3840     0        I: conv2d_49_output                  (1,6,8,8) (114)      
                                                               O: nl_50_output                      (1,6,8,8) (115)      
------ ---------------- ----- -------------- -------- -------- ------------------------------------ -------------------- 
56     eltwise_51       51    eltwise/mul    384      0        I: conv2d_49_output                  (1,6,8,8) (114)      
                                                               I: nl_50_output                      (1,6,8,8) (115)      
                                                               O: eltwise_51_output                 (1,6,8,8) (116)      
------ ---------------- ----- -------------- -------- -------- ------------------------------------ -------------------- 
57     conv2d_52        52    conv2d         27656    2336     I: eltwise_51_output                 (1,6,8,8) (116)      
                                                               W: conv2d_52_weights                 (8,3,3,8) (27)       
                                                               W: conv2d_52_bias                    (8,) (28)            
                                                               O: conv2d_52_output                  (1,6,8,8) (117)      
------ ---------------- ----- -------------- -------- -------- ------------------------------------ -------------------- 
58     nl_53            53    nl             3840     0        I: conv2d_52_output                  (1,6,8,8) (117)      
                                                               O: nl_53_output                      (1,6,8,8) (118)      
------ ---------------- ----- -------------- -------- -------- ------------------------------------ -------------------- 
59     eltwise_54       54    eltwise/mul    384      0        I: conv2d_52_output                  (1,6,8,8) (117)      
                                                               I: nl_53_output                      (1,6,8,8) (118)      
                                                               O: eltwise_54_output                 (1,6,8,8) (119)      
------ ---------------- ----- -------------- -------- -------- ------------------------------------ -------------------- 
60     conv2d_55        55    conv2d         12320    1152     I: eltwise_54_output                 (1,6,8,8) (119)      
                                                               W: conv2d_55_weights                 (8,1,1,32) (29)      
                                                               W: conv2d_55_bias                    (32,) (30)           
                                                               O: conv2d_55_output                  (1,6,8,32) (120)     
------ ---------------- ----- -------------- -------- -------- ------------------------------------ -------------------- 
61     nl_56            56    nl             15360    0        I: conv2d_55_output                  (1,6,8,32) (120)     
                                                               O: nl_56_output                      (1,6,8,32) (121)     
------ ---------------- ----- -------------- -------- -------- ------------------------------------ -------------------- 
62     eltwise_57       57    eltwise/mul    1536     0        I: conv2d_55_output                  (1,6,8,32) (120)     
                                                               I: nl_56_output                      (1,6,8,32) (121)     
                                                               O: eltwise_57_output                 (1,6,8,32) (122)     
------ ---------------- ----- -------------- -------- -------- ------------------------------------ -------------------- 
63     eltwise_58       58    eltwise/sum    1536     0        I: eltwise_57_output                 (1,6,8,32) (122)     
                                                               I: eltwise_48_output                 (1,6,8,32) (113)     
                                                               O: eltwise_58_output                 (1,6,8,32) (123)     
------ ---------------- ----- -------------- -------- -------- ------------------------------------ -------------------- 
64     concat_63        63    concat         0        0        I: eltwise_58_output                 (1,6,8,32) (123)     
                                                               I: eltwise_62_output                 (1,6,8,32) (109)     
                                                               O: concat_63_output                  (1,6,8,64) (124)     
------ ---------------- ----- -------------- -------- -------- ------------------------------------ -------------------- 
65     conv2d_64        64    conv2d         884768   73856    I: concat_63_output                  (1,6,8,64) (124)     
                                                               W: conv2d_64_weights                 (64,3,3,32) (31)     
                                                               W: conv2d_64_bias                    (32,) (32)           
                                                               O: conv2d_64_output                  (1,6,8,32) (125)     
------ ---------------- ----- -------------- -------- -------- ------------------------------------ -------------------- 
66     nl_65            65    nl             15360    0        I: conv2d_64_output                  (1,6,8,32) (125)     
                                                               O: nl_65_output                      (1,6,8,32) (126)     
------ ---------------- ----- -------------- -------- -------- ------------------------------------ -------------------- 
67     eltwise_66       66    eltwise/mul    1536     0        I: conv2d_64_output                  (1,6,8,32) (125)     
                                                               I: nl_65_output                      (1,6,8,32) (126)     
                                                               O: eltwise_66_output                 (1,6,8,32) (127)     
------ ---------------- ----- -------------- -------- -------- ------------------------------------ -------------------- 
68     pool_68          68    pool           1536     0        I: eltwise_66_output                 (1,6,8,32) (127)     
                                                               O: pool_68_output                    (1,1,1,32) (128)     
------ ---------------- ----- -------------- -------- -------- ------------------------------------ -------------------- 
69     pool_67          67    pool           1536     0        I: eltwise_66_output                 (1,6,8,32) (127)     
                                                               O: pool_67_output                    (1,1,1,32) (129)     
------ ---------------- ----- -------------- -------- -------- ------------------------------------ -------------------- 
70     concat_69        69    concat         0        0        I: pool_68_output                    (1,1,1,32) (128)     
                                                               I: pool_67_output                    (1,1,1,32) (129)     
                                                               O: concat_69_output                  (1,1,1,64) (130)     
------ ---------------- ----- -------------- -------- -------- ------------------------------------ -------------------- 
71     conv2d_70        70    conv2d         3137     12548    I: concat_69_output                  (1,1,1,64) (130)     
                                                               W: conv2d_70_weights                 (64,7,7,1) (33)      
                                                               W: conv2d_32_bias                    (1,) (13)            
                                                               O: conv2d_70_output                  (1,1,1,1) (131)      
------ ---------------- ----- -------------- -------- -------- ------------------------------------ -------------------- 
72     nl_71            71    nl             10       0        I: conv2d_70_output                  (1,1,1,1) (131)      
                                                               O: nl_71_output                      (1,1,1,1) (132)      
------ ---------------- ----- -------------- -------- -------- ------------------------------------ -------------------- 
73     eltwise_72       72    eltwise/mul    1536     0        I: eltwise_66_output                 (1,6,8,32) (127)     
                                                               I: nl_71_output                      (1,1,1,1) (132)      
                                                               O: eltwise_72_output                 (1,6,8,32) (133)     
------ ---------------- ----- -------------- -------- -------- ------------------------------------ -------------------- 
74     reduce_74        74    reduce         1536     0        I: eltwise_72_output                 (1,6,8,32) (133)     
                                                               O: reduce_74_output                  (1,6,8,1) (134)      
------ ---------------- ----- -------------- -------- -------- ------------------------------------ -------------------- 
75     reduce_74_Mul    74    eltwise/mul    48       4        I: reduce_74_output                  (1,6,8,1) (134)      
                                                               I: reduce_74_Placeholder             (1,) (185)           
                                                               O: reduce_74_Mul_output              (1,6,8,1) (135)      
------ ---------------- ----- -------------- -------- -------- ------------------------------------ -------------------- 
76     reduce_73        73    reduce         1536     0        I: eltwise_72_output                 (1,6,8,32) (133)     
                                                               O: reduce_73_output                  (1,6,8,1) (136)      
------ ---------------- ----- -------------- -------- -------- ------------------------------------ -------------------- 
77     concat_75        75    concat         0        0        I: reduce_74_Mul_output              (1,6,8,1) (135)      
                                                               I: reduce_73_output                  (1,6,8,1) (136)      
                                                               O: concat_75_output                  (1,6,8,2) (137)      
------ ---------------- ----- -------------- -------- -------- ------------------------------------ -------------------- 
78     conv2d_76        76    conv2d         4705     396      I: concat_75_output                  (1,6,8,2) (137)      
                                                               W: conv2d_76_weights                 (2,7,7,1) (34)       
                                                               W: conv2d_32_bias                    (1,) (13)            
                                                               O: conv2d_76_output                  (1,6,8,1) (138)      
------ ---------------- ----- -------------- -------- -------- ------------------------------------ -------------------- 
79     nl_77            77    nl             480      0        I: conv2d_76_output                  (1,6,8,1) (138)      
                                                               O: nl_77_output                      (1,6,8,1) (139)      
------ ---------------- ----- -------------- -------- -------- ------------------------------------ -------------------- 
80     eltwise_78       78    eltwise/mul    48       0        I: nl_77_output                      (1,6,8,1) (139)      
                                                               I: eltwise_72_output                 (1,6,8,32) (133)     
                                                               O: eltwise_78_output                 (1,6,8,32) (140)     
------ ---------------- ----- -------------- -------- -------- ------------------------------------ -------------------- 
81     conv2d_79        79    conv2d         221248   73984    I: eltwise_78_output                 (1,6,8,32) (140)     
                                                               W: conv2d_79_weights                 (32,3,3,64) (35)     
                                                               W: conv2d_79_bias                    (64,) (36)           
                                                               O: conv2d_79_output                  (1,3,4,64) (141)     
------ ---------------- ----- -------------- -------- -------- ------------------------------------ -------------------- 
82     nl_80            80    nl             7680     0        I: conv2d_79_output                  (1,3,4,64) (141)     
                                                               O: nl_80_output                      (1,3,4,64) (142)     
------ ---------------- ----- -------------- -------- -------- ------------------------------------ -------------------- 
83     eltwise_81       81    eltwise/mul    768      0        I: conv2d_79_output                  (1,3,4,64) (141)     
                                                               I: nl_80_output                      (1,3,4,64) (142)     
                                                               O: eltwise_81_output                 (1,3,4,64) (143)     
------ ---------------- ----- -------------- -------- -------- ------------------------------------ -------------------- 
84     split_82         82    split          0        0        I: eltwise_81_output                 (1,3,4,64) (143)     
                                                               O: split_82_output0                  (1,3,4,32) (144)     
                                                               O: split_82_output1                  (1,3,4,32) (145)     
------ ---------------- ----- -------------- -------- -------- ------------------------------------ -------------------- 
85     conv2d_97        97    conv2d         3488     1280     I: split_82_output1                  (1,3,4,32) (145)     
                                                               W: conv2d_97_weights                 (32,3,3,1) (37)      
                                                               W: conv2d_97_bias                    (32,) (38)           
                                                               O: conv2d_97_output                  (1,3,4,32) (146)     
------ ---------------- ----- -------------- -------- -------- ------------------------------------ -------------------- 
86     conv2d_98        98    conv2d         24640    8448     I: conv2d_97_output                  (1,3,4,32) (146)     
                                                               W: conv2d_98_weights                 (32,1,1,64) (39)     
                                                               W: conv2d_98_bias                    (64,) (40)           
                                                               O: conv2d_98_output                  (1,3,4,64) (147)     
------ ---------------- ----- -------------- -------- -------- ------------------------------------ -------------------- 
87     nl_99            99    nl             7680     0        I: conv2d_98_output                  (1,3,4,64) (147)     
                                                               O: nl_99_output                      (1,3,4,64) (148)     
------ ---------------- ----- -------------- -------- -------- ------------------------------------ -------------------- 
88     eltwise_100      100   eltwise/mul    768      0        I: conv2d_98_output                  (1,3,4,64) (147)     
                                                               I: nl_99_output                      (1,3,4,64) (148)     
                                                               O: eltwise_100_output                (1,3,4,64) (149)     
------ ---------------- ----- -------------- -------- -------- ------------------------------------ -------------------- 
89     conv2d_83        83    conv2d         3488     1280     I: split_82_output0                  (1,3,4,32) (144)     
                                                               W: conv2d_83_weights                 (32,3,3,1) (41)      
                                                               W: conv2d_83_bias                    (32,) (42)           
                                                               O: conv2d_83_output                  (1,3,4,32) (150)     
------ ---------------- ----- -------------- -------- -------- ------------------------------------ -------------------- 
90     conv2d_84        84    conv2d         24640    8448     I: conv2d_83_output                  (1,3,4,32) (150)     
                                                               W: conv2d_84_weights                 (32,1,1,64) (43)     
                                                               W: conv2d_84_bias                    (64,) (44)           
                                                               O: conv2d_84_output                  (1,3,4,64) (151)     
------ ---------------- ----- -------------- -------- -------- ------------------------------------ -------------------- 
91     nl_85            85    nl             7680     0        I: conv2d_84_output                  (1,3,4,64) (151)     
                                                               O: nl_85_output                      (1,3,4,64) (152)     
------ ---------------- ----- -------------- -------- -------- ------------------------------------ -------------------- 
92     eltwise_86       86    eltwise/mul    768      0        I: conv2d_84_output                  (1,3,4,64) (151)     
                                                               I: nl_85_output                      (1,3,4,64) (152)     
                                                               O: eltwise_86_output                 (1,3,4,64) (153)     
------ ---------------- ----- -------------- -------- -------- ------------------------------------ -------------------- 
93     conv2d_87        87    conv2d         12304    4160     I: eltwise_86_output                 (1,3,4,64) (153)     
                                                               W: conv2d_87_weights                 (64,1,1,16) (45)     
                                                               W: conv2d_87_bias                    (16,) (46)           
                                                               O: conv2d_87_output                  (1,3,4,16) (154)     
------ ---------------- ----- -------------- -------- -------- ------------------------------------ -------------------- 
94     nl_88            88    nl             1920     0        I: conv2d_87_output                  (1,3,4,16) (154)     
                                                               O: nl_88_output                      (1,3,4,16) (155)     
------ ---------------- ----- -------------- -------- -------- ------------------------------------ -------------------- 
95     eltwise_89       89    eltwise/mul    192      0        I: conv2d_87_output                  (1,3,4,16) (154)     
                                                               I: nl_88_output                      (1,3,4,16) (155)     
                                                               O: eltwise_89_output                 (1,3,4,16) (156)     
------ ---------------- ----- -------------- -------- -------- ------------------------------------ -------------------- 
96     conv2d_90        90    conv2d         27664    9280     I: eltwise_89_output                 (1,3,4,16) (156)     
                                                               W: conv2d_90_weights                 (16,3,3,16) (47)     
                                                               W: conv2d_90_bias                    (16,) (48)           
                                                               O: conv2d_90_output                  (1,3,4,16) (157)     
------ ---------------- ----- -------------- -------- -------- ------------------------------------ -------------------- 
97     nl_91            91    nl             1920     0        I: conv2d_90_output                  (1,3,4,16) (157)     
                                                               O: nl_91_output                      (1,3,4,16) (158)     
------ ---------------- ----- -------------- -------- -------- ------------------------------------ -------------------- 
98     eltwise_92       92    eltwise/mul    192      0        I: conv2d_90_output                  (1,3,4,16) (157)     
                                                               I: nl_91_output                      (1,3,4,16) (158)     
                                                               O: eltwise_92_output                 (1,3,4,16) (159)     
------ ---------------- ----- -------------- -------- -------- ------------------------------------ -------------------- 
99     conv2d_93        93    conv2d         12352    4352     I: eltwise_92_output                 (1,3,4,16) (159)     
                                                               W: conv2d_93_weights                 (16,1,1,64) (49)     
                                                               W: conv2d_93_bias                    (64,) (50)           
                                                               O: conv2d_93_output                  (1,3,4,64) (160)     
------ ---------------- ----- -------------- -------- -------- ------------------------------------ -------------------- 
100    nl_94            94    nl             7680     0        I: conv2d_93_output                  (1,3,4,64) (160)     
                                                               O: nl_94_output                      (1,3,4,64) (161)     
------ ---------------- ----- -------------- -------- -------- ------------------------------------ -------------------- 
101    eltwise_95       95    eltwise/mul    768      0        I: conv2d_93_output                  (1,3,4,64) (160)     
                                                               I: nl_94_output                      (1,3,4,64) (161)     
                                                               O: eltwise_95_output                 (1,3,4,64) (162)     
------ ---------------- ----- -------------- -------- -------- ------------------------------------ -------------------- 
102    eltwise_96       96    eltwise/sum    768      0        I: eltwise_95_output                 (1,3,4,64) (162)     
                                                               I: eltwise_86_output                 (1,3,4,64) (153)     
                                                               O: eltwise_96_output                 (1,3,4,64) (163)     
------ ---------------- ----- -------------- -------- -------- ------------------------------------ -------------------- 
103    concat_101       101   concat         0        0        I: eltwise_96_output                 (1,3,4,64) (163)     
                                                               I: eltwise_100_output                (1,3,4,64) (149)     
                                                               O: concat_101_output                 (1,3,4,128) (164)    
------ ---------------- ----- -------------- -------- -------- ------------------------------------ -------------------- 
104    conv2d_102       102   conv2d         884800   295168   I: concat_101_output                 (1,3,4,128) (164)    
                                                               W: conv2d_102_weights                (128,3,3,64) (51)    
                                                               W: conv2d_102_bias                   (64,) (52)           
                                                               O: conv2d_102_output                 (1,3,4,64) (165)     
------ ---------------- ----- -------------- -------- -------- ------------------------------------ -------------------- 
105    nl_103           103   nl             7680     0        I: conv2d_102_output                 (1,3,4,64) (165)     
                                                               O: nl_103_output                     (1,3,4,64) (166)     
------ ---------------- ----- -------------- -------- -------- ------------------------------------ -------------------- 
106    eltwise_104      104   eltwise/mul    768      0        I: conv2d_102_output                 (1,3,4,64) (165)     
                                                               I: nl_103_output                     (1,3,4,64) (166)     
                                                               O: eltwise_104_output                (1,3,4,64) (167)     
------ ---------------- ----- -------------- -------- -------- ------------------------------------ -------------------- 
107    pool_106         106   pool           768      0        I: eltwise_104_output                (1,3,4,64) (167)     
                                                               O: pool_106_output                   (1,1,1,64) (168)     
------ ---------------- ----- -------------- -------- -------- ------------------------------------ -------------------- 
108    pool_105         105   pool           768      0        I: eltwise_104_output                (1,3,4,64) (167)     
                                                               O: pool_105_output                   (1,1,1,64) (169)     
------ ---------------- ----- -------------- -------- -------- ------------------------------------ -------------------- 
109    concat_107       107   concat         0        0        I: pool_106_output                   (1,1,1,64) (168)     
                                                               I: pool_105_output                   (1,1,1,64) (169)     
                                                               O: concat_107_output                 (1,1,1,128) (170)    
------ ---------------- ----- -------------- -------- -------- ------------------------------------ -------------------- 
110    conv2d_108       108   conv2d         6273     25092    I: concat_107_output                 (1,1,1,128) (170)    
                                                               W: conv2d_108_weights                (128,7,7,1) (53)     
                                                               W: conv2d_32_bias                    (1,) (13)            
                                                               O: conv2d_108_output                 (1,1,1,1) (171)      
------ ---------------- ----- -------------- -------- -------- ------------------------------------ -------------------- 
111    nl_109           109   nl             10       0        I: conv2d_108_output                 (1,1,1,1) (171)      
                                                               O: nl_109_output                     (1,1,1,1) (172)      
------ ---------------- ----- -------------- -------- -------- ------------------------------------ -------------------- 
112    eltwise_110      110   eltwise/mul    768      0        I: eltwise_104_output                (1,3,4,64) (167)     
                                                               I: nl_109_output                     (1,1,1,1) (172)      
                                                               O: eltwise_110_output                (1,3,4,64) (173)     
------ ---------------- ----- -------------- -------- -------- ------------------------------------ -------------------- 
113    reduce_112       112   reduce         768      0        I: eltwise_110_output                (1,3,4,64) (173)     
                                                               O: reduce_112_output                 (1,3,4,1) (174)      
------ ---------------- ----- -------------- -------- -------- ------------------------------------ -------------------- 
114    reduce_112_Mul   112   eltwise/mul    12       4        I: reduce_112_output                 (1,3,4,1) (174)      
                                                               I: reduce_112_Placeholder            (1,) (184)           
                                                               O: reduce_112_Mul_output             (1,3,4,1) (175)      
------ ---------------- ----- -------------- -------- -------- ------------------------------------ -------------------- 
115    reduce_111       111   reduce         768      0        I: eltwise_110_output                (1,3,4,64) (173)     
                                                               O: reduce_111_output                 (1,3,4,1) (176)      
------ ---------------- ----- -------------- -------- -------- ------------------------------------ -------------------- 
116    concat_113       113   concat         0        0        I: reduce_112_Mul_output             (1,3,4,1) (175)      
                                                               I: reduce_111_output                 (1,3,4,1) (176)      
                                                               O: concat_113_output                 (1,3,4,2) (177)      
------ ---------------- ----- -------------- -------- -------- ------------------------------------ -------------------- 
117    conv2d_114       114   conv2d         1177     396      I: concat_113_output                 (1,3,4,2) (177)      
                                                               W: conv2d_114_weights                (2,7,7,1) (54)       
                                                               W: conv2d_32_bias                    (1,) (13)            
                                                               O: conv2d_114_output                 (1,3,4,1) (178)      
------ ---------------- ----- -------------- -------- -------- ------------------------------------ -------------------- 
118    nl_115           115   nl             120      0        I: conv2d_114_output                 (1,3,4,1) (178)      
                                                               O: nl_115_output                     (1,3,4,1) (179)      
------ ---------------- ----- -------------- -------- -------- ------------------------------------ -------------------- 
119    eltwise_116      116   eltwise/mul    12       0        I: nl_115_output                     (1,3,4,1) (179)      
                                                               I: eltwise_110_output                (1,3,4,64) (173)     
                                                               O: eltwise_116_output                (1,3,4,64) (180)     
------ ---------------- ----- -------------- -------- -------- ------------------------------------ -------------------- 
120    pool_117         117   pool           768      0        I: eltwise_116_output                (1,3,4,64) (180)     
                                                               O: pool_117_output                   (1,1,1,64) (181)     
------ ---------------- ----- -------------- -------- -------- ------------------------------------ -------------------- 
121    gemm_118         118   dense          325      1300     I: pool_117_output                   (1,1,1,64) (181)     
                                                               W: gemm_118_weights                  (64,5) (55)          
                                                               W: gemm_118_bias                     (5,) (56)            
                                                               O: gemm_118_output                   (1,5) (182)          
------ ---------------- ----- -------------- -------- -------- ------------------------------------ -------------------- 
122    nl_119           119   nl             75       0        I: gemm_118_output                   (1,5) (182)          
                                                               O: nl_119_output                     (1,5) (183)          
------ ---------------- ----- -------------- -------- -------- ------------------------------------ -------------------- 



Number of operations per c-layer
------- ------ ------------------------------ ----------- -------------- --------- ---------- 
c_id    m_id   name (type)                            #op           type    #param   sparsity 
------- ------ ------------------------------ ----------- -------------- --------- ---------- 
0       0      conv2d_0 (conv2d)                   27,652   smul_f32_f32       148     0.0000 
1       1      nl_1 (nl)                            7,680     op_f32_f32           
2       2      eltwise_2 (eltwise/mul)                768     op_f32_f32           
3       3      conv2d_3 (conv2d)                  110,608   smul_f32_f32       592     0.0000 
4       4      nl_4 (nl)                           30,720     op_f32_f32           
5       5      eltwise_5 (eltwise/mul)              3,072     op_f32_f32           
6       6      split_6 (split)                          0   smul_f32_f32           
7       21     conv2d_21 (conv2d)                  13,832   smul_f32_f32        80     0.0000 
8       22     conv2d_22 (conv2d)                  24,592   smul_f32_f32       144     0.0000 
9       23     nl_23 (nl)                          30,720     op_f32_f32           
10      24     eltwise_24 (eltwise/mul)             3,072     op_f32_f32           
11      7      conv2d_7 (conv2d)                   13,832   smul_f32_f32        80     0.0000 
12      8      conv2d_8 (conv2d)                   24,592   smul_f32_f32       144     0.0000 
13      9      nl_9 (nl)                           30,720     op_f32_f32           
14      10     eltwise_10 (eltwise/mul)             3,072     op_f32_f32           
15      11     conv2d_11 (conv2d)                  12,292   smul_f32_f32        68     0.0000 
16      12     nl_12 (nl)                           7,680     op_f32_f32           
17      13     eltwise_13 (eltwise/mul)               768     op_f32_f32           
18      14     conv2d_14 (conv2d)                  27,652   smul_f32_f32       148     0.0000 
19      15     nl_15 (nl)                           7,680     op_f32_f32           
20      16     eltwise_16 (eltwise/mul)               768     op_f32_f32           
21      17     conv2d_17 (conv2d)                  12,304   smul_f32_f32        80     0.0000 
22      18     nl_18 (nl)                          30,720     op_f32_f32           
23      19     eltwise_19 (eltwise/mul)             3,072     op_f32_f32           
24      20     eltwise_20 (eltwise/sum)             3,072     op_f32_f32           
25      25     concat_25 (concat)                       0     op_f32_f32           
26      26     conv2d_26 (conv2d)                 884,752   smul_f32_f32     4,624     0.0000 
27      27     nl_27 (nl)                          30,720     op_f32_f32           
28      28     eltwise_28 (eltwise/mul)             3,072     op_f32_f32           
29      30     pool_30 (pool)                       3,072     op_f32_f32           
30      29     pool_29 (pool)                       3,072     op_f32_f32           
31      31     concat_31 (concat)                       0     op_f32_f32           
32      32     conv2d_32 (conv2d)                   1,569   smul_f32_f32     1,569     0.0006 
33      33     nl_33 (nl)                              10     op_f32_f32           
34      34     eltwise_34 (eltwise/mul)             3,072     op_f32_f32           
35      36     reduce_36 (reduce)                   3,072   smul_f32_f32           
36      36     reduce_36_Mul (eltwise/mul)            192     op_f32_f32         1     0.0000 
37      35     reduce_35 (reduce)                   3,072   smul_f32_f32           
38      37     concat_37 (concat)                       0     op_f32_f32           
39      38     conv2d_38 (conv2d)                  18,817   smul_f32_f32        99     0.0101 
40      39     nl_39 (nl)                           1,920     op_f32_f32           
41      40     eltwise_40 (eltwise/mul)               192     op_f32_f32           
42      41     conv2d_41 (conv2d)                 221,216   smul_f32_f32     4,640     0.0000 
43      42     nl_42 (nl)                          15,360     op_f32_f32           
44      43     eltwise_43 (eltwise/mul)             1,536     op_f32_f32           
45      44     split_44 (split)                         0   smul_f32_f32           
46      59     conv2d_59 (conv2d)                   6,928   smul_f32_f32       160     0.0000 
47      60     conv2d_60 (conv2d)                  24,608   smul_f32_f32       544     0.0000 
48      61     nl_61 (nl)                          15,360     op_f32_f32           
49      62     eltwise_62 (eltwise/mul)             1,536     op_f32_f32           
50      45     conv2d_45 (conv2d)                   6,928   smul_f32_f32       160     0.0000 
51      46     conv2d_46 (conv2d)                  24,608   smul_f32_f32       544     0.0000 
52      47     nl_47 (nl)                          15,360     op_f32_f32           
53      48     eltwise_48 (eltwise/mul)             1,536     op_f32_f32           
54      49     conv2d_49 (conv2d)                  12,296   smul_f32_f32       264     0.0000 
55      50     nl_50 (nl)                           3,840     op_f32_f32           
56      51     eltwise_51 (eltwise/mul)               384     op_f32_f32           
57      52     conv2d_52 (conv2d)                  27,656   smul_f32_f32       584     0.0000 
58      53     nl_53 (nl)                           3,840     op_f32_f32           
59      54     eltwise_54 (eltwise/mul)               384     op_f32_f32           
60      55     conv2d_55 (conv2d)                  12,320   smul_f32_f32       288     0.0000 
61      56     nl_56 (nl)                          15,360     op_f32_f32           
62      57     eltwise_57 (eltwise/mul)             1,536     op_f32_f32           
63      58     eltwise_58 (eltwise/sum)             1,536     op_f32_f32           
64      63     concat_63 (concat)                       0     op_f32_f32           
65      64     conv2d_64 (conv2d)                 884,768   smul_f32_f32    18,464     0.0000 
66      65     nl_65 (nl)                          15,360     op_f32_f32           
67      66     eltwise_66 (eltwise/mul)             1,536     op_f32_f32           
68      68     pool_68 (pool)                       1,536     op_f32_f32           
69      67     pool_67 (pool)                       1,536     op_f32_f32           
70      69     concat_69 (concat)                       0     op_f32_f32           
71      70     conv2d_70 (conv2d)                   3,137   smul_f32_f32     3,137     0.0003 
72      71     nl_71 (nl)                              10     op_f32_f32           
73      72     eltwise_72 (eltwise/mul)             1,536     op_f32_f32           
74      74     reduce_74 (reduce)                   1,536   smul_f32_f32           
75      74     reduce_74_Mul (eltwise/mul)             48     op_f32_f32         1     0.0000 
76      73     reduce_73 (reduce)                   1,536   smul_f32_f32           
77      75     concat_75 (concat)                       0     op_f32_f32           
78      76     conv2d_76 (conv2d)                   4,705   smul_f32_f32        99     0.0101 
79      77     nl_77 (nl)                             480     op_f32_f32           
80      78     eltwise_78 (eltwise/mul)                48     op_f32_f32           
81      79     conv2d_79 (conv2d)                 221,248   smul_f32_f32    18,496     0.0000 
82      80     nl_80 (nl)                           7,680     op_f32_f32           
83      81     eltwise_81 (eltwise/mul)               768     op_f32_f32           
84      82     split_82 (split)                         0   smul_f32_f32           
85      97     conv2d_97 (conv2d)                   3,488   smul_f32_f32       320     0.0000 
86      98     conv2d_98 (conv2d)                  24,640   smul_f32_f32     2,112     0.0000 
87      99     nl_99 (nl)                           7,680     op_f32_f32           
88      100    eltwise_100 (eltwise/mul)              768     op_f32_f32           
89      83     conv2d_83 (conv2d)                   3,488   smul_f32_f32       320     0.0000 
90      84     conv2d_84 (conv2d)                  24,640   smul_f32_f32     2,112     0.0000 
91      85     nl_85 (nl)                           7,680     op_f32_f32           
92      86     eltwise_86 (eltwise/mul)               768     op_f32_f32           
93      87     conv2d_87 (conv2d)                  12,304   smul_f32_f32     1,040     0.0000 
94      88     nl_88 (nl)                           1,920     op_f32_f32           
95      89     eltwise_89 (eltwise/mul)               192     op_f32_f32           
96      90     conv2d_90 (conv2d)                  27,664   smul_f32_f32     2,320     0.0000 
97      91     nl_91 (nl)                           1,920     op_f32_f32           
98      92     eltwise_92 (eltwise/mul)               192     op_f32_f32           
99      93     conv2d_93 (conv2d)                  12,352   smul_f32_f32     1,088     0.0000 
100     94     nl_94 (nl)                           7,680     op_f32_f32           
101     95     eltwise_95 (eltwise/mul)               768     op_f32_f32           
102     96     eltwise_96 (eltwise/sum)               768     op_f32_f32           
103     101    concat_101 (concat)                      0     op_f32_f32           
104     102    conv2d_102 (conv2d)                884,800   smul_f32_f32    73,792     0.0000 
105     103    nl_103 (nl)                          7,680     op_f32_f32           
106     104    eltwise_104 (eltwise/mul)              768     op_f32_f32           
107     106    pool_106 (pool)                        768     op_f32_f32           
108     105    pool_105 (pool)                        768     op_f32_f32           
109     107    concat_107 (concat)                      0     op_f32_f32           
110     108    conv2d_108 (conv2d)                  6,273   smul_f32_f32     6,273     0.0002 
111     109    nl_109 (nl)                             10     op_f32_f32           
112     110    eltwise_110 (eltwise/mul)              768     op_f32_f32           
113     112    reduce_112 (reduce)                    768   smul_f32_f32           
114     112    reduce_112_Mul (eltwise/mul)            12     op_f32_f32         1     0.0000 
115     111    reduce_111 (reduce)                    768   smul_f32_f32           
116     113    concat_113 (concat)                      0     op_f32_f32           
117     114    conv2d_114 (conv2d)                  1,177   smul_f32_f32        99     0.0101 
118     115    nl_115 (nl)                            120     op_f32_f32           
119     116    eltwise_116 (eltwise/mul)               12     op_f32_f32           
120     117    pool_117 (pool)                        768     op_f32_f32           
121     118    gemm_118 (dense)                       325   smul_f32_f32       325     0.0000 
122     119    nl_119 (nl)                             75     op_f32_f32           
------- ------ ------------------------------ ----------- -------------- --------- ---------- 
total                                           3,993,912                  144,960     0.0000 

Number of operation types
---------------- ----------- ----------- 
operation type             #           % 
---------------- ----------- ----------- 
smul_f32_f32       3,634,815       91.0% 
op_f32_f32           359,097        9.0% 

Complexity report (model)
------ -------------------------- ------------------------- ------------------------- ------------ 
m_id   name                       c_macc                    c_rom                     c_id         
------ -------------------------- ------------------------- ------------------------- ------------ 
0      serving_default_input_30   |                  0.7%   |                  0.1%   [0]          
1      nl_1                       |                  0.2%   |                  0.0%   [1]          
2      eltwise_2                  |                  0.0%   |                  0.0%   [2]          
3      conv2d_3                   ||                 2.8%   |                  0.4%   [3]          
4      nl_4                       |                  0.8%   |                  0.0%   [4]          
5      eltwise_5                  |                  0.1%   |                  0.0%   [5]          
6      split_6                    |                  0.0%   |                  0.0%   [6]          
7      conv2d_7                   |                  0.3%   |                  0.1%   [11]         
8      conv2d_8                   |                  0.6%   |                  0.1%   [12]         
9      nl_9                       |                  0.8%   |                  0.0%   [13]         
10     eltwise_10                 |                  0.1%   |                  0.0%   [14]         
11     conv2d_11                  |                  0.3%   |                  0.0%   [15]         
12     nl_12                      |                  0.2%   |                  0.0%   [16]         
13     eltwise_13                 |                  0.0%   |                  0.0%   [17]         
14     conv2d_14                  |                  0.7%   |                  0.1%   [18]         
15     nl_15                      |                  0.2%   |                  0.0%   [19]         
16     eltwise_16                 |                  0.0%   |                  0.0%   [20]         
17     conv2d_17                  |                  0.3%   |                  0.1%   [21]         
18     nl_18                      |                  0.8%   |                  0.0%   [22]         
19     eltwise_19                 |                  0.1%   |                  0.0%   [23]         
20     eltwise_20                 |                  0.1%   |                  0.0%   [24]         
21     conv2d_21                  |                  0.3%   |                  0.1%   [7]          
22     conv2d_22                  |                  0.6%   |                  0.1%   [8]          
23     nl_23                      |                  0.8%   |                  0.0%   [9]          
24     eltwise_24                 |                  0.1%   |                  0.0%   [10]         
25     concat_25                  |                  0.0%   |                  0.0%   [25]         
26     conv2d_26                  |||||||||||||||   22.2%   |                  3.2%   [26]         
27     nl_27                      |                  0.8%   |                  0.0%   [27]         
28     eltwise_28                 |                  0.1%   |                  0.0%   [28]         
29     pool_29                    |                  0.1%   |                  0.0%   [30]         
30     pool_30                    |                  0.1%   |                  0.0%   [29]         
31     concat_31                  |                  0.0%   |                  0.0%   [31]         
32     conv2d_32                  |                  0.0%   |                  1.1%   [32]         
33     nl_33                      |                  0.0%   |                  0.0%   [33]         
34     eltwise_34                 |                  0.1%   |                  0.0%   [34]         
35     reduce_35                  |                  0.1%   |                  0.0%   [37]         
36     reduce_36                  |                  0.1%   |                  0.0%   [35, 36]     
37     concat_37                  |                  0.0%   |                  0.0%   [38]         
38     conv2d_38                  |                  0.5%   |                  0.1%   [39]         
39     nl_39                      |                  0.0%   |                  0.0%   [40]         
40     eltwise_40                 |                  0.0%   |                  0.0%   [41]         
41     conv2d_41                  ||||               5.5%   |                  3.2%   [42]         
42     nl_42                      |                  0.4%   |                  0.0%   [43]         
43     eltwise_43                 |                  0.0%   |                  0.0%   [44]         
44     split_44                   |                  0.0%   |                  0.0%   [45]         
45     conv2d_45                  |                  0.2%   |                  0.1%   [50]         
46     conv2d_46                  |                  0.6%   |                  0.4%   [51]         
47     nl_47                      |                  0.4%   |                  0.0%   [52]         
48     eltwise_48                 |                  0.0%   |                  0.0%   [53]         
49     conv2d_49                  |                  0.3%   |                  0.2%   [54]         
50     nl_50                      |                  0.1%   |                  0.0%   [55]         
51     eltwise_51                 |                  0.0%   |                  0.0%   [56]         
52     conv2d_52                  |                  0.7%   |                  0.4%   [57]         
53     nl_53                      |                  0.1%   |                  0.0%   [58]         
54     eltwise_54                 |                  0.0%   |                  0.0%   [59]         
55     conv2d_55                  |                  0.3%   |                  0.2%   [60]         
56     nl_56                      |                  0.4%   |                  0.0%   [61]         
57     eltwise_57                 |                  0.0%   |                  0.0%   [62]         
58     eltwise_58                 |                  0.0%   |                  0.0%   [63]         
59     conv2d_59                  |                  0.2%   |                  0.1%   [46]         
60     conv2d_60                  |                  0.6%   |                  0.4%   [47]         
61     nl_61                      |                  0.4%   |                  0.0%   [48]         
62     eltwise_62                 |                  0.0%   |                  0.0%   [49]         
63     concat_63                  |                  0.0%   |                  0.0%   [64]         
64     conv2d_64                  |||||||||||||||   22.2%   ||||              12.7%   [65]         
65     nl_65                      |                  0.4%   |                  0.0%   [66]         
66     eltwise_66                 |                  0.0%   |                  0.0%   [67]         
67     pool_67                    |                  0.0%   |                  0.0%   [69]         
68     pool_68                    |                  0.0%   |                  0.0%   [68]         
69     concat_69                  |                  0.0%   |                  0.0%   [70]         
70     conv2d_70                  |                  0.1%   |                  2.2%   [71]         
71     nl_71                      |                  0.0%   |                  0.0%   [72]         
72     eltwise_72                 |                  0.0%   |                  0.0%   [73]         
73     reduce_73                  |                  0.0%   |                  0.0%   [76]         
74     reduce_74                  |                  0.0%   |                  0.0%   [74, 75]     
75     concat_75                  |                  0.0%   |                  0.0%   [77]         
76     conv2d_76                  |                  0.1%   |                  0.1%   [78]         
77     nl_77                      |                  0.0%   |                  0.0%   [79]         
78     eltwise_78                 |                  0.0%   |                  0.0%   [80]         
79     conv2d_79                  ||||               5.5%   ||||              12.8%   [81]         
80     nl_80                      |                  0.2%   |                  0.0%   [82]         
81     eltwise_81                 |                  0.0%   |                  0.0%   [83]         
82     split_82                   |                  0.0%   |                  0.0%   [84]         
83     conv2d_83                  |                  0.1%   |                  0.2%   [89]         
84     conv2d_84                  |                  0.6%   |                  1.5%   [90]         
85     nl_85                      |                  0.2%   |                  0.0%   [91]         
86     eltwise_86                 |                  0.0%   |                  0.0%   [92]         
87     conv2d_87                  |                  0.3%   |                  0.7%   [93]         
88     nl_88                      |                  0.0%   |                  0.0%   [94]         
89     eltwise_89                 |                  0.0%   |                  0.0%   [95]         
90     conv2d_90                  |                  0.7%   |                  1.6%   [96]         
91     nl_91                      |                  0.0%   |                  0.0%   [97]         
92     eltwise_92                 |                  0.0%   |                  0.0%   [98]         
93     conv2d_93                  |                  0.3%   |                  0.8%   [99]         
94     nl_94                      |                  0.2%   |                  0.0%   [100]        
95     eltwise_95                 |                  0.0%   |                  0.0%   [101]        
96     eltwise_96                 |                  0.0%   |                  0.0%   [102]        
97     conv2d_97                  |                  0.1%   |                  0.2%   [85]         
98     conv2d_98                  |                  0.6%   |                  1.5%   [86]         
99     nl_99                      |                  0.2%   |                  0.0%   [87]         
100    eltwise_100                |                  0.0%   |                  0.0%   [88]         
101    concat_101                 |                  0.0%   |                  0.0%   [103]        
102    conv2d_102                 ||||||||||||||||  22.2%   ||||||||||||||||  50.9%   [104]        
103    nl_103                     |                  0.2%   |                  0.0%   [105]        
104    eltwise_104                |                  0.0%   |                  0.0%   [106]        
105    pool_105                   |                  0.0%   |                  0.0%   [108]        
106    pool_106                   |                  0.0%   |                  0.0%   [107]        
107    concat_107                 |                  0.0%   |                  0.0%   [109]        
108    conv2d_108                 |                  0.2%   ||                 4.3%   [110]        
109    nl_109                     |                  0.0%   |                  0.0%   [111]        
110    eltwise_110                |                  0.0%   |                  0.0%   [112]        
111    reduce_111                 |                  0.0%   |                  0.0%   [115]        
112    reduce_112                 |                  0.0%   |                  0.0%   [113, 114]   
113    concat_113                 |                  0.0%   |                  0.0%   [116]        
114    conv2d_114                 |                  0.0%   |                  0.1%   [117]        
115    nl_115                     |                  0.0%   |                  0.0%   [118]        
116    eltwise_116                |                  0.0%   |                  0.0%   [119]        
117    pool_117                   |                  0.0%   |                  0.0%   [120]        
118    model_2_dense_2_MatMul     |                  0.0%   |                  0.2%   [121]        
119    nl_119                     |                  0.0%   |                  0.0%   [122]        
------ -------------------------- ------------------------- ------------------------- ------------ 
macc=3,993,912 weights=579,820 act=49,152 ram_io=0

Generated files (7)
--------------------------------------------------------------------- 
C:\Users\TUKorea707\.stm32cubemx\network_output\model_config.h        
C:\Users\TUKorea707\.stm32cubemx\network_output\model.h               
C:\Users\TUKorea707\.stm32cubemx\network_output\model.c               
C:\Users\TUKorea707\.stm32cubemx\network_output\model_data_params.h   
C:\Users\TUKorea707\.stm32cubemx\network_output\model_data_params.c   
C:\Users\TUKorea707\.stm32cubemx\network_output\model_data.h          
C:\Users\TUKorea707\.stm32cubemx\network_output\model_data.c          
